hw1/py/net/anbncn_srn3_160.pth (torch, 2071 bytes, 6 tensors)

H0 f4 [3]
000000 d5 c5 ed 3f 74 14 33 40 fe 47 b6 3f
       1.8575999 2.7981234 1.424072

W f4 [3, 3]
000000 ca bf 33 bd 2f 33 03 c0 86 cf cc be d3 1c 1a 3f
       -0.043884076 -2.049999 -0.40002078 0.6020023
000010 37 eb e9 3e b8 64 8d c0 1d 66 1d bc 61 9b 22 3f
       0.45687267 -4.418545 -0.009606865 0.6351834
000020 ae 3d 57 3f
       0.8407849

U f4 [3, 3]
000000 63 f6 77 3f 76 86 4b 3e 73 d5 1f 40 64 b0 2b 3f
       0.9686033 0.19875512 2.497403 0.67066026
000010 59 48 f4 3f fc 47 b3 be c0 b5 c1 3e 9b 3e df 3d
       1.9084579 -0.35015857 0.37833977 0.10900613
000020 ee 6e 1e 40
       2.4755206

hid_bias f4 [3]
000000 42 26 d5 bc de f8 cf 3e 6f 38 b1 be
       -0.02601922 0.40619558 -0.34613368

V f4 [3, 3]
000000 29 23 30 bf ce 3a 35 bf a7 b0 d9 3f aa 75 81 c0
       -0.6880365 -0.70792854 1.7007035 -4.0456133
000010 84 bc 9e c0 ff 12 3c 41 e9 60 c3 40 70 5f 3d bf
       -4.960512 11.754638 6.10558 -0.7397375
000020 5e bb f5 c0
       -7.679122

out_bias f4 [3]
000000 42 4f 36 bf 1b 11 83 40 13 b2 06 c1
       -0.7121469 4.095838 -8.418475
