hw1/py/net/anbn_srn2_50.pth (torch, 2071 bytes, 6 tensors)

H0 f4 [2]
0	0x3f9ee03f	1.2412184
1	0xbf1deaa6	-0.6168617

W f4 [2, 2]
0	0xbf95b4dc	-1.1695819
1	0x3f7269a0	0.9469242
2	0x3ff3b4a6	1.9039505
3	0xbf80a221	-1.0049478

U f4 [2, 2]
0	0x3f3f85fa	0.74813807
1	0x402de1d4	2.7169085
2	0xbda079b0	-0.0783571
3	0x404b487f	3.1762998

hid_bias f4 [2]
0	0x3e9d263c	0.30693233
1	0xbd3e63db	-0.04648195

V f4 [2, 2]
0	0x3f03d93f	0.51503366
1	0xbf03c8d8	-0.5147834
2	0x407760d4	3.865285
3	0xc0776d04	-3.8660288

out_bias f4 [2]
0	0xc01f7df5	-2.4920628
1	0x401f77d1	2.491688
