hw1/py/net/anbncn_srn3_90.pth (torch, 2071 bytes, 6 tensors)

H0 f4 [3]
1.8744104 2.6601663 1.3120037
00000000: aeec ef3f 2a40 2a40 bdef a73f

W f4 [3, 3]
-0.027744433 -2.0415964 -0.12850899 0.60470235 0.45218712 -4.046519 -0.022690091 0.40455174
0.67026246
00000000: 4b48 e3bc 84a9 02c0 dc97 03be c6cd 1a3f
00000010: 1285 e73e 157d 81c0 92e0 b9bc 6821 cf3e
00000020: 5296 2b3f

U f4 [3, 3]
0.95803416 0.19517757 2.3827379 0.6855074 1.8961434 -0.28880882 0.3578798 0.11636491
2.1797023
00000000: ba41 753f a1dc 473e c77e 1840 6a7d 2f3f
00000010: d4b4 f23f c0de 93be 053c b73e ba50 ee3d
00000020: 3e80 0b40

hid_bias f4 [3]
-0.019699277 0.4019426 -0.3274604
00000000: 6160 a1bc 6ccb cd3e e4a8 a7be

V f4 [3, 3]
-0.29905474 -0.2607826 1.0702043 -3.38339 -4.3905683 10.161554 5.9811773 -0.2648179
-6.339595
00000000: b41d 99be 4c85 85be 74fc 883f 7689 58c0
00000010: 897f 8cc0 ba95 2241 ce65 bf40 3696 87be
00000020: f6dd cac0

out_bias f4 [3]
-0.44479963 3.6285634 -6.8100886
00000000: c7bc e3be 623a 6840 3fec d9c0
