hw1/py/net/anbncn_srn3_50.pth (torch, 2071 bytes, 6 tensors)

H0 f4 [3]
1.9109595 2.528302 1.2194424
00000000: 529a f43f b3cf 2140 b016 9c3f

W f4 [3, 3]
-0.0112165995 -2.068265 0.13073765 0.5866374 0.4559499 -3.5385005 -0.028539531 0.25369158
0.53209096
00000000: d4c5 37bc 745e 04c0 17e0 053e de2d 163f
00000010: 4472 e93e cb76 62c0 bccb e9bc dde3 813e
00000020: 1d37 083f

U f4 [3, 3]
0.90670574 0.2067916 2.106392 0.6995515 1.8672858 -0.13585812 0.3152946 0.12509449
1.8588325
00000000: de1d 683f 2dc1 533e 20cf 0640 cf15 333f
00000010: 3903 ef3f 641e 0bbe 4b6e a13e c518 003e
00000020: 39ee ed3f

hid_bias f4 [3]
-0.018160345 0.4004635 -0.26314485
00000000: 01c5 94bc 8d09 cd3e ecba 86be

V f4 [3, 3]
-0.27910805 0.031967133 0.7101015 -2.9625735 -3.9600582 8.739149 5.433085 -0.39253592
-4.5144534
00000000: 40e7 8ebe f8ef 023d 36c9 353f ce9a 3dc0
00000010: 9871 7dc0 8ed3 0b41 d5db ad40 78fa c8be
00000020: 6776 90c0

out_bias f4 [3]
-0.5562409 3.1002529 -4.9005322
00000000: ce65 0ebf 8b6a 4640 29d1 9cc0
