hw1/py/net/anbn_srn2_60.pth (torch, 2071 bytes, 6 tensors)

H0 f4 [2]
0	0x3fa9d870	1.3269176
1	0xbf28351d	-0.65706044

W f4 [2, 2]
0	0xbf94fc09	-1.1639415
1	0x3f7c3efd	0.9853361
2	0x40020e88	2.032137
3	0xbf88c478	-1.0684958

U f4 [2, 2]
0	0x3f34a1ca	0.7055937
1	0x403d0ff9	2.9541
2	0xbd8c307d	-0.06845186
3	0x40574def	3.3641317

hid_bias f4 [2]
0	0x3ea9448d	0.33060113
1	0xbd896429	-0.06708557

V f4 [2, 2]
0	0x3effd04f	0.49963614
1	0xbeffaf98	-0.49938655
2	0x407b76f0	3.9291344
3	0xc07b831f	-3.929878

out_bias f4 [2]
0	0xc0228a51	-2.5396922
1	0x40228432	2.5393186
