hw1/py/net/anbncn_srn3_0.pth (torch, 2071 bytes, 6 tensors)

H0 f4 [3]
000000 88 66 4c b9 9c 35 95 ba 18 a9 6e b9
       -0.00019493152 -0.0011383775 -0.00022760441

W f4 [3, 3]
000000 8a 91 f7 39 02 f6 b9 b9 6a 0b 49 ba 63 bd e3 ba
       0.00047219946 -0.0003546924 -0.00076692423 -0.0017375167
000010 ee 10 e1 39 4a fa 1f bb fa 0b 16 3b e2 bc db 3a
       0.00042927958 -0.0024410659 0.0022895322 0.0016764665
000020 ca 5d d4 3a
       0.0016202268

U f4 [3, 3]
000000 3c 61 07 3b 66 5f 8f 39 36 5a 0f 3b 16 16 8b 39
       0.0020657321 0.00027346163 0.0021873838 0.000265286
000010 28 50 9b 38 af 2b 18 ba f8 d2 f6 38 2f 0c 97 ba
       7.405906e-05 -0.0005804849 0.0001176949 -0.0011524017
000020 69 a5 08 3b
       0.0020850545

hid_bias f4 [3]
000000 78 9c f4 b8 0d 1a cc 3a cc 25 00 ba
       -0.00011663971 0.0015571729 -0.00048884447

V f4 [3, 3]
000000 04 d4 09 3a 71 20 8e ba 34 86 c3 3a 9c 5f 07 ba
       0.0005257728 -0.0010843409 0.0014917315 -0.0005164088
000010 a5 81 c2 ba 1d c8 1c 3a 50 34 02 b9 75 06 3a bb
       -0.0014839662 0.0005980747 -0.00012417254 -0.0028385196
000020 29 c7 47 3a
       0.0007620925

out_bias f4 [3]
000000 35 43 9b ba d0 5b fe b8 b0 8a d3 ba
       -0.0011845591 -0.00012128765 -0.0016139355
