hw1/py/net/anbncn_srn3_110.pth (torch, 2071 bytes, 6 tensors)

H0 f4 [3]
1.8630537 2.7175097 1.3408543
00000000: 8b78 ee3f aeeb 2d40 1da1 ab3f

W f4 [3, 3]
-0.03129322 -2.0533555 -0.20364596 0.61125565 0.45206705 -4.1587925 -0.032542422 0.45951447
0.7269281
00000000: 522d 00bd 2d6a 03c0 9188 50be 407b 1c3f
00000010: 5575 e73e d414 85c0 344b 05bd 7b45 eb3e
00000020: f617 3a3f

U f4 [3, 3]
0.9558945 0.19544132 2.4267197 0.6721733 1.9015026 -0.33114466 0.36590925 0.11443242
2.2753367
00000000: 80b5 743f c521 483e 604f 1b40 8d13 2c3f
00000010: 7064 f33f cb8b a9be 7558 bb3e 8b5b ea3d
00000020: 1e9f 1140

hid_bias f4 [3]
-0.020680832 0.40047446 -0.32648438
00000000: d96a a9bc fd0a cd3e f628 a7be

V f4 [3, 3]
-0.38209537 -0.3421767 1.2742202 -3.5950806 -4.6080604 10.844115 6.053245 -0.28415105
-6.884346
00000000: 01a2 c3be c931 afbe a619 a33f cd15 66c0
00000010: 3b75 93c0 7f81 2d41 2fb4 c140 3f7c 91be
00000020: 904c dcc0

out_bias f4 [3]
-0.50282484 3.7626119 -7.382084
00000000: 21b9 00bf a2ce 7040 083a ecc0
