hw1/py/net/anbn_srn2_20.pth (torch, 2071 bytes, 6 tensors)

H0 f4 [2]
000000 91 af 90 3f 18 42 af be
       1.1303579 -0.34230113

W f4 [2, 2]
000000 41 15 8d bf c2 59 32 3f ef 2f bd 3f 57 e5 35 bf
       -1.1022111 0.6966821 1.4780253 -0.7105307

U f4 [2, 2]
000000 d5 93 5a 3f 35 89 da 3f a0 02 ff bd 8a 7d 14 40
       0.85381824 1.7073122 -0.124516726 2.3201623

hid_bias f4 [2]
000000 61 52 6b 3e b1 03 a8 3a
       0.22980644 0.0012818483

V f4 [2, 2]
000000 d5 a7 ae 3e e8 86 ae be 30 ed 4e 40 74 f9 4e c0
       0.3411242 -0.340873 3.2332268 -3.2339754

out_bias f4 [2]
000000 c5 87 f2 bf 6a 7b f2 3f
       -1.8947684 1.8943913
