hw1/py/net/anbncn_srn3_40.pth (torch, 2071 bytes, 6 tensors)

H0 f4 [3]
1.9114128 2.4872913 1.1869447
00000000: 2da9 f43f c82f 1f40 ceed 973f

W f4 [3, 3]
-0.0014542548 -2.09303 0.20252854 0.5729299 0.457504 -3.4017918 -0.038917266 0.22224922
0.47448605
00000000: b29c beba 34f4 05c0 a463 4f3e 89ab 123f
00000010: f73d ea3e f5b6 59c0 b667 1fbd 4d95 633e
00000020: d6ef f23e

U f4 [3, 3]
0.921592 0.22381936 1.9844129 0.69653714 1.8550271 -0.10910087 0.35120592 0.12876199
1.7881345
00000000: 74ed 6b3f e730 653e 3e01 fe3f 4250 323f
00000010: 8771 ed3f 4770 dfbd 43d1 b33e 2fda 033e
00000020: 97e1 e43f

hid_bias f4 [3]
-0.02039777 0.3989473 -0.25143448
00000000: 3919 a7bc d242 cc3e 05bc 80be

V f4 [3, 3]
-0.20851012 0.16569744 0.47474438 -2.7652833 -3.8620007 8.205035 5.3632884 -0.38599372
-4.235979
00000000: ad83 55be 97ac 293e b211 f33e 67fa 30c0
00000010: 052b 77c0 d347 0341 0fa0 ab40 f8a0 c5be
00000020: 248d 87c0

out_bias f4 [3]
-0.48555622 2.781218 -4.2946105
00000000: d39a f8be 7aff 3140 736d 89c0
