hw1/py/net/anbn_srn2_40.pth (torch, 2071 bytes, 6 tensors)

H0 f4 [2]
000000 27 aa 9c 3f 40 62 0b bf
       1.2239426 -0.5444679

W f4 [2, 2]
000000 d2 e6 94 bf 03 0a 65 3f 2d c1 e3 3f e8 d1 6d bf
       -1.1632941 0.894684 1.7793328 -0.92898417

U f4 [2, 2]
000000 12 3a 4e 3f d1 fd 1b 40 c9 23 cd bd 8f ff 3c 40
       0.8055736 2.4373667 -0.10016591 2.953098

hid_bias f4 [2]
000000 70 b2 92 3e 0d 0d dc bc
       0.28651762 -0.026861692

V f4 [2, 2]
000000 e7 e8 f6 3e 18 c8 f6 be e1 ff 71 40 19 0c 72 c0
       0.48224565 -0.48199534 3.7812426 -3.7819884

out_bias f4 [2]
000000 57 e9 18 c0 2e e3 18 40
       -2.389242 2.388866
