hw1/py/net/anbncn_srn3_10.pth (torch, 2071 bytes, 6 tensors)

H0 f4 [3]
00000000: 0143 f73f 9b4c 1140 75d0 c43f
1.9317323 2.2703006 1.5376116

W f4 [3, 3]
00000000: 2063 1c3d 2736 0bc0 7718 0b3f 9309 913e
00000010: f349 e83e cc9a ccbf 1b90 313d 9b0e 903f
00000020: ac1c 983e
0.03818047 -2.1751802 0.54334205 0.28327617 0.4536892 -1.598474 0.04335032 1.1254457
0.29709375

U f4 [3, 3]
00000000: bf10 833f 902f ae3e 987e 813f 97e1 473f
00000010: 4ea0 e13f 3459 793e 2998 f43e e21e 963c
00000020: c536 6e3f
1.0239486 0.34020662 1.0116758 0.780786 1.7627046 0.24350435 0.4777234 0.018325273
0.9305232

hid_bias f4 [3]
00000000: cf2c 96bd ceb5 c83e a3a9 053d
-0.07332765 0.39201206 0.03263248

V f4 [3, 3]
00000000: f2d5 ea3e be69 243e 8eb0 2fbf 173a eebf
00000010: aa6e 32c0 f482 8a40 92e9 6a40 1513 2dbf
00000020: bf94 74bf
0.45866352 0.16055962 -0.68628776 -1.8611478 -2.7880044 4.3284855 3.670506 -0.6760724
-0.9553947

out_bias f4 [3]
00000000: 33cd ffbe 84c8 be3f 15ba a5bf
-0.49961242 1.4904943 -1.2947413
