hw1/py/net/anbncn_srn3_60.pth (torch, 2071 bytes, 6 tensors)

H0 f4 [3]
0	0x3ff4b755	1.9118448
1	0x402499e2	2.5718923
2	0x3fa02cbc	1.2513652

W f4 [3, 3]
0	0xbc6f18fa	-0.014593357
1	0xc003e7de	-2.061027
2	0x3d684632	0.05670757
3	0x3f1729d7	0.5904822
4	0x3ee8be67	0.45457765
5	0xc06cd9ba	-3.700789
6	0xbd3fb00c	-0.04679875
7	0x3e90e06e	0.28296226
8	0x3f0d8d98	0.5529418

U f4 [3, 3]
0	0x3f70b095	0.9401944
1	0x3e50871b	0.20364039
2	0x400cde24	2.2010584
3	0x3f2feb5c	0.68718505
4	0x3ff02fe3	1.8764614
5	0xbe453b4d	-0.19260903
6	0x3ebadd9f	0.36497208
7	0x3dff2aa6	0.124593064
8	0x3ffd13eb	1.9771703

hid_bias f4 [3]
0	0xbcb9b32f	-0.02266845
1	0x3ecd05f3	0.400436
2	0xbe97bcb5	-0.2963616

V f4 [3, 3]
0	0xbe465693	-0.19368963
1	0xbb48ccd4	-0.0030639665
2	0x3f280f48	0.6564832
3	0xc03e3c5c	-2.972434
4	0xc083850c	-4.109991
5	0x410fba8f	8.983047
6	0x40b6bb63	5.7103744
7	0xbe834d7c	-0.25645053
8	0xc0a46982	-5.1378794

out_bias f4 [3]
0	0xbed08b20	-0.40731144
1	0x404d373c	3.2064962
2	0xc0b14c84	-5.5405903
