hw1/py/net/anbncn_srn3_80.pth (torch, 2071 bytes, 6 tensors)

H0 f4 [3]
000000 cf 5c f5 3f 30 0e 2a 40 8b 3c a9 3f
       1.9168948 2.657116 1.3221601

W f4 [3, 3]
000000 04 60 c1 bc ed e5 02 c0 a6 85 87 bd 15 f0 18 3f
       -0.023605354 -2.0452836 -0.06617288 0.59741336
000010 8e aa e7 3e 0b 85 7c c0 11 3d 0d bd 51 02 b5 3e
       0.4524731 -3.9456203 -0.034482066 0.3535333
000020 22 8e 20 3f
       0.6271688

U f4 [3, 3]
000000 50 40 74 3f dd 13 4b 3e b8 3a 15 40 1a 45 2f 3f
       0.95410633 0.19831796 2.331709 0.68464816
000010 0f da f1 3f ee c1 86 be 9d 33 c1 3e dd 18 f3 3d
       1.8894671 -0.26319832 0.3773469 0.11869977
000020 f8 b2 08 40
       2.1359234

hid_bias f4 [3]
000000 7b 22 b7 bc 5a 69 cd 3e 3e 6e a3 be
       -0.022355309 0.4011944 -0.31920046

V f4 [3, 3]
000000 5c d6 62 be cc 86 80 be 57 b8 66 3f ad 68 4e c0
       -0.22152084 -0.25102842 0.9012503 -3.225139
000010 5e 47 8a c0 7b 62 1a 41 77 f6 bb 40 85 5b b9 be
       -4.321212 9.649043 5.873836 -0.36202636
000020 e8 2c b7 c0
       -5.7242317

out_bias f4 [3]
000000 6f 88 ef be 8c de 65 40 7a 3d cf c0
       -0.46783778 3.5917082 -6.4762545
