hw1/py/net/reber_lstm7_20.pth (torch, 3611 bytes, 5 tensors)

W f4 [7, 28]
000000 21 73 04 40 7d 69 26 3f 57 1c c4 3f 76 4b 32 3f
       2.069527 0.6500471 1.5321149 0.69646394
000010 44 f0 eb 3f 43 a9 96 3e 2e a0 7e 3e 2f 05 85 3c
       1.8432698 0.2942601 0.24865791 0.016237823
000020 0a 5c b6 bc 5e 7b 0d 40 25 57 f8 3d 78 d9 04 bf
       -0.022260685 2.2106547 0.121259965 -0.5189433
000030 c1 8b 0f 40 6c 46 d6 be f2 df 4d bf 2c 18 c8 3e
       2.242905 -0.41850603 -0.8041984 0.39080942
000040 c6 e3 21 40 84 74 ec 3f 7e 21 c8 3f f6 06 00 3f
       2.5295272 1.8473058 1.5635221 0.5001062
000050 92 88 6c bf 2a 84 1a be 0e f1 9d 3f 8c 06 04 40
       -0.9239589 -0.15089479 1.2339189 2.0628996
000060 53 ab e2 3f 2c 57 0c 40 f1 5c b0 3f 0d 92 90 be
       1.7708534 2.1928205 1.3778363 -0.28236428
000070 21 c8 c6 3f 8f 9e d9 3e 24 c9 c1 3f 4f cf d7 bd
       1.5529824 0.42503783 1.5139508 -0.10537588
000080 bc f6 52 3f ad b3 41 bf 3f b0 40 3f 96 16 30 40
       0.82407737 -0.7566479 0.7526893 2.7513785
000090 f9 85 a7 be 08 26 85 c0 4a ee 2b be 4d 51 3d bf
       -0.327194 -4.1608925 -0.16790119 -0.7395218
0000a0 d2 bc 85 3e 9a bd 9c be 97 be 76 bf de 31 0d 3e
       0.2612062 -0.30613405 -0.9638457 0.13788554
0000b0 39 98 34 bf fc 35 10 be 0b 3c ae be ba ec c1 3c
       -0.70544773 -0.14083093 -0.34030184 0.02367245
0000c0 cd 07 cf 3f 5b cd c4 3f db 35 04 be 46 54 a7 3e
       1.6174256 1.537517 -0.12911169 0.32681483
0000d0 ae 44 38 3e e3 42 c1 3f 23 7e a1 bf 08 62 f7 3e
       0.17994949 1.5098537 -1.2616619 0.4831698
0000e0 34 56 8e bf e6 07 b6 bd 30 f0 35 be cd 4e 40 3f
       -1.1120057 -0.08888225 -0.17767406 0.7512024
0000f0 8b 4d 0c 3f 76 9b 82 3f 42 51 d9 3f 30 63 13 40
       0.5480582 1.0203693 1.6977923 2.302929
000100 43 35 ac be 44 0e 02 3e 9b d1 4b bf 10 36 f9 3f
       -0.33634385 0.12700754 -0.7961671 1.9469624
000110 c0 ff c6 bf 42 f4 85 3f 25 d2 af be 32 a6 b3 3e
       -1.5546799 1.0465167 -0.34340015 0.35087734
000120 6f 86 5e bf 36 e0 86 bf fa a4 b5 bf 1b f2 0e c0
       -0.8692388 -1.0537174 -1.4190972 -2.233527
000130 98 d6 f7 3f b0 12 2b 3e e0 82 9f be b9 57 bc 3e
       1.9362364 0.16706347 -0.31154537 0.36785677
000140 4c ac 3f 3f c3 af 0e 40 01 f3 3f bf ca c6 61 3f
       0.7487228 2.2294776 -0.7498017 0.88193953
000150 93 b3 43 40 bd 00 59 3e ca 73 fa 3f 60 39 d6 3f
       3.0578353 0.21191688 1.9566586 1.673626
000160 43 fa 78 3f c8 ca 67 3f b6 54 93 3f 73 00 33 bf
       0.9725687 0.90543795 1.1510227 -0.6992256
000170 bd 2a 11 3e 40 21 9d bf 90 75 9c bf 02 ad 4d 3f
       0.1417646 -1.2275772 -1.2223377 0.80342114
000180 f6 4f 09 bf 98 84 e7 3f aa 08 ad 3f 69 56 24 be
       -0.53637636 1.8087339 1.3518269 -0.16048588
000190 27 e7 51 bf 54 b3 e4 3e 4e 48 60 bf 07 f5 07 40
       -0.81993335 0.44668067 -0.8761033 2.1243303
0001a0 db 37 ab 3f 5f e7 c3 3e c4 15 b2 3e 3c 09 8a 3f
       1.3376421 0.3826246 0.3478223 1.0784068
0001b0 be dd 2a 3f 4e 27 c1 3f 52 64 35 bf be 0f bd 3f
       0.667446 1.509012 -0.708562 1.4770429
0001c0 c2 d2 0d 40 cc d3 0a be 57 52 51 bf 00 73 ad 3f
       2.2159886 -0.13557357 -0.81766266 1.355072
0001d0 d4 15 58 3f 43 d4 72 3f bd 22 7d 3f c3 c7 f8 bf
       0.8440831 0.94855136 0.9888113 -1.9435962
0001e0 3d 05 98 bd 01 0f d1 3d a8 b8 eb bf 6b 25 91 3f
       -0.07422874 0.1020794 -1.8415728 1.1339544
0001f0 2b 94 c8 3f ba 80 df bf cb a0 9b 3f c2 fc f9 bd
       1.5670217 -1.7461159 1.2158445 -0.12206413
000200 21 24 1a 3e 79 e9 a7 3e c7 82 04 3d fb 23 1f 3f
       0.15052845 0.32795313 0.03235128 0.62164277
000210 8a b9 dc 3f 4d 20 01 be 3f 30 06 bf 43 71 ce be
       1.7244122 -0.12609978 -0.5241737 -0.40320787
000220 4a ea 8e 3f 93 2b 08 40 4a 9c 25 40 5e 94 b4 3f
       1.1165249 2.1276596 2.5876641 1.4107778
000230 0d be cb 3c 18 8a 46 3e 2a 8c b1 be 8a 98 53 3f
       0.024870897 0.19388616 -0.3467725 0.8265463
000240 ed 58 e4 be 78 4c 3b 3f 8d 9f 29 3f 7b 8a 5b 3e
       -0.44599095 0.7316356 0.6625908 0.21439545
000250 75 b6 11 3f 33 02 76 3f b6 c4 9e 3f d9 9d 38 bf
       0.5691903 0.96097106 1.2403781 -0.72115856
000260 05 39 9b be 22 50 cc bf 61 11 ad 3e ae 6d 40 be
       -0.3031694 -1.5961955 0.33802322 -0.1879184
000270 83 c4 f7 3f 36 23 4e c0 d5 07 40 3f fb dc 16 bf
       1.9356846 -3.220899 0.7501195 -0.5893094
000280 cc a0 9d bf 19 c3 c5 3e b2 00 1e 40 9c b1 c3 be
       -1.2314696 0.3862541 2.4687924 -0.38221443
000290 41 b8 21 3f c6 05 85 bf 4e 8b f5 3f b8 20 95 3d
       0.63171774 -1.0392387 1.9183137 0.07281631
0002a0 ee 56 a9 be 11 b5 f7 bd bc 4d 9b 3f 40 4d e4 3f
       -0.33074135 -0.120950826 1.2133098 1.7836075
0002b0 3e be c3 bd 65 cc 68 3a 79 ae 41 be 83 c1 6e bd
       -0.0955777 0.0008880555 -0.18914212 -0.058290016
0002c0 94 47 b9 3e 6d da f6 3f 22 63 17 c0 92 23 83 be
       0.36187422 1.9285408 -2.3654256 -0.25613075
0002d0 8b e0 58 3f 87 8e 28 bf 8c f0 c8 bb c4 35 81 3e
       0.84717625 -0.6584248 -0.006132191 0.25236332
0002e0 27 ef 84 40 7b 2c c2 3f 2f 67 76 be 86 d6 ce bf
       4.1541934 1.5169824 -0.24062799 -1.6159217
0002f0 db da ab bf 98 d3 be bf 42 18 c1 3f c2 22 0e 3e
       -1.3426164 -1.4908323 1.5085528 0.13880447
000300 d7 68 5c 3f 8c 8f 05 c0 41 56 ad bf e0 f8 22 3f
       0.8609747 -2.0868864 -1.3541948 0.63661003

U f4 [7, 28]
000000 dc 26 e6 3f dd 08 80 bf a4 ee 58 3f 70 ec da 3f
       1.7980609 -1.0002705 0.84739137 1.7103405
000010 99 d9 ed be fe 6a a2 3f e2 66 e0 3f d6 1a 9b bd
       -0.46455076 1.2688901 1.7531397 -0.07573478
000020 cf 9c b2 be c7 97 19 c0 88 1f 02 bf db f1 ac 3e
       -0.3488526 -2.3998888 -0.5082936 0.3377827
000030 da 7a 52 3e 6b ca b0 bf 2b 30 eb 3e 0c d0 14 3f
       0.20554677 -1.3811773 0.45935187 0.58129954
000040 61 cd 82 3f c7 82 9e 3e af 98 fe bd 3b 59 e4 be
       1.0218927 0.3095915 -0.12431466 -0.44599327
000050 a9 06 58 bd 2d a6 83 bf e7 5b 36 bf d1 6a 36 3f
       -0.052740727 -1.0285088 -0.7123398 0.7125674
000060 39 15 1e 3f 76 05 ba bf 2e d4 1d 40 d7 b0 b0 3f
       0.61751133 -1.4532917 2.4660754 1.3803967
000070 88 58 0b bf b3 63 7e bf 78 7e c3 bf 22 7e e3 bf
       -0.5443196 -0.9937088 -1.527297 -1.7772868
000080 95 12 4d bf 25 0f 0f c0 b2 59 a1 bf 21 8d ad 3e
       -0.8010648 -2.2352993 -1.2605498 0.33896735
000090 a8 a7 a6 bd 63 c9 07 3f db 2f 23 3f a6 65 11 3f
       -0.08137447 0.53041667 0.63744897 0.5679573
0000a0 de 5c b1 3e dd bd 58 3e 80 5e f5 bf 3f 2f 04 3f
       0.34641165 0.21166177 -1.9169464 0.5163459
0000b0 29 61 10 3f 18 33 48 3d e7 07 c1 3f 22 c5 24 3f
       0.56398255 0.04887685 1.5080537 0.643633
0000c0 fd f5 07 bf 64 5f 81 be 8d 8f 1d bf 07 7c 3e c0
       -0.53109723 -0.2526809 -0.61547166 -2.97632
0000d0 91 67 f3 bf a5 0b 41 bf 6e 06 69 bf 58 8a f3 bf
       -1.9015981 -0.75408393 -0.91025436 -1.9026594
0000e0 89 b9 95 3f 14 16 02 3f 7a f2 9d 3f 69 bb 36 3f
       1.1697246 0.5081494 1.2339623 0.71379715
0000f0 c1 3a 63 3f 02 a0 48 3f 91 81 cf 3f 5c 43 85 be
       0.88761526 0.7836915 1.6211416 -0.26027954
000100 7f 78 8a be 5d 05 59 3d 98 ff 99 be f8 6e c2 bd
       -0.27045056 0.05298363 -0.30077815 -0.09493822
000110 8f 2d 54 3f b3 44 ef bf 47 d5 9f 3e 7c af 72 3d
       0.82882017 -1.869284 0.31217405 0.059249386
000120 77 a9 32 be 2f 25 26 3e 6e bb 2f bf bd 84 d9 3d
       -0.17447458 0.16225122 -0.6864537 0.10621021
000130 8c 9f 41 3e 97 d0 f5 bc 45 a7 fa 3d 6f e2 5f 3f
       0.18908519 -0.03000669 0.122389354 0.87454885
000140 e7 56 86 3f 3c 70 f5 be f2 e9 c5 3e f6 68 f2 3f
       1.049527 -0.4793719 0.3865505 1.8938282
000150 74 d4 50 3f 3d ec 84 bf e9 b6 b3 bf b3 18 40 3f
       0.8157418 -1.0384594 -1.4040195 0.7503769
000160 06 01 07 bf 43 68 32 be ad 3a 89 3f 3d 17 e7 bd
       -0.52735937 -0.17422585 1.0721031 -0.11283729
000170 2f f5 79 bf fd 50 43 be a7 7c 6d bf 1f 8a 66 3f
       -0.97639745 -0.19073863 -0.9276833 0.90054506
000180 be ae c9 3e d0 02 12 bf f1 f3 b4 bf 6b 5a 42 3f
       0.3939113 -0.5703554 -1.4136945 0.75919217
000190 95 78 29 40 6b 95 ab bf fb db a8 3f 6c c3 b5 3e
       2.6479847 -1.3404974 1.3192133 0.35500658
0001a0 16 57 10 bf 47 75 bb 3f 58 8c 89 bf 27 9e 11 c0
       -0.5638288 1.4645165 -1.0745955 -2.2752779
0001b0 5e 22 19 be 6d b8 08 be 7c 94 f1 3f e6 39 aa be
       -0.14954516 -0.13351603 1.8873439 -0.33247298
0001c0 5c 33 54 3f 19 a8 c0 3e d1 ef af be 05 13 b8 bf
       0.8289087 0.37628248 -0.34362653 -1.4380804
0001d0 45 26 35 3f e1 d0 9b bf f5 88 81 3f c1 ac 13 bf
       0.7076152 -1.217312 1.0119921 -0.57685477
0001e0 21 ef f6 3e 4a 49 9d 3e 57 09 c0 3f b7 fb cc be
       0.48229316 0.30719978 1.500285 -0.40035793
0001f0 bd 9a d1 bc e0 1b bf 3e 92 1b 3f bf 37 3f 65 be
       -0.02558648 0.37325954 -0.74651444 -0.22387396
000200 87 65 1a bc 30 cd 18 bf dd dc d5 3d c3 8d 35 be
       -0.00942362 -0.5968809 0.10442517 -0.17729859
000210 ed ad 21 3f c8 09 80 3f c3 81 c8 3d 4b 79 99 bf
       0.63156015 1.0002985 0.09790375 -1.1990141
000220 bc 90 96 bf af 8c 7f 3f ad c7 8f bf 95 35 09 3c
       -1.176292 0.9982404 -1.1232811 0.008374591
000230 fd 9f bf 3f bb 82 b5 3f 68 61 e7 3f 69 a2 0e be
       1.49707 1.4180521 1.8076601 -0.13929142
000240 9d ba d4 3e 8b 09 b7 3f c1 09 b3 3f fc 80 19 3f
       0.41548625 1.4299787 1.3987352 0.5996244
000250 3f 85 b2 3f 9d 38 c1 bf 96 be 2b 3e 43 8f 85 bf
       1.3946913 -1.5095402 0.16771922 -1.0434345
000260 cf cb 0a bc 48 3f 6e bf 1f 4b 22 3f 21 74 b2 be
       -0.008471443 -0.9306531 0.63395876 -0.34854224
000270 f1 a4 d2 3e 6d a2 1c 3f d9 52 55 3e 2f 8b c2 3e
       0.41141465 0.6118534 0.20832385 0.37996814
000280 06 a1 90 bd 64 9d 4b 40 97 1c 0f 3f 30 60 7a 3c
       -0.07061963 3.1814814 0.55903 0.015281722
000290 7f 23 a2 3c 35 f9 07 3f d2 75 85 3f f2 96 4c 3f
       0.019792316 0.53114635 1.0426581 0.79917824
0002a0 0b 77 29 3f c0 d6 ba 3f f0 fe e1 3e ee e9 f3 bd
       0.6619727 1.4596786 0.44139814 -0.11909853
0002b0 de 3c 04 3e 80 4d 9e 3f 69 03 70 3e 3d 83 ee 3e
       0.12913844 1.2367401 0.23438801 0.46584502
0002c0 f0 d6 8b 3f bc 4b 93 3d c6 30 29 bf 2b 77 68 bf
       1.0924969 0.071921796 -0.6609005 -0.90806836
0002d0 a1 71 a5 3d 6b 3a 46 3e ef a5 6d 3f ad 9d c5 bf
       0.080783136 0.19358222 0.9283132 -1.5438744
0002e0 4c 5e 5f 3f 52 b8 28 3f a4 48 90 be b6 c0 45 3f
       0.8725326 0.6590625 -0.2818042 0.7724718
0002f0 f6 66 3b bf b0 41 70 3f 59 a8 89 3f 3d d3 20 40
       -0.7320398 0.9385023 1.0754501 2.512893
000300 56 3c 32 3f 4b 33 8a bf 7a 63 e9 3e 78 aa 54 3e
       0.69623315 -1.0796903 0.45583707 0.20768154

hid_bias f4 [28]
000000 3a 83 7b 3f bf 5e cb 3d c7 22 ed 3f c6 a8 b0 3f
       0.9824711 0.09930181 1.8526238 1.3801506
000010 5a c4 13 40 58 b7 4e 3f 4a 5e 5c 3f 15 68 97 3e
       2.3088593 0.8074851 0.86081374 0.29571596
000020 6b 2a fb 3e 2f 7e d1 bd 04 55 3d bf eb dd c1 bd
       0.490558 -0.10229146 -0.7395785 -0.094661556
000030 4f c6 58 bd 8e 26 07 3d 2e 5b 98 be bf 73 aa be
       -0.052923497 0.032995753 -0.29757065 -0.33291432
000040 4d b3 3b 3e fa 36 5f 3e f5 5b f0 3e 59 de aa bc
       0.18330117 0.21798316 0.46945158 -0.020857977
000050 ee a9 6b 3e 37 21 73 3f 1a 24 68 3f d7 19 c4 3f
       0.23014042 0.94972557 0.90680087 1.5320386
000060 7a d3 25 40 04 b0 c4 3f 2e c5 1c 3f 44 1b b7 3f
       2.5910325 1.5366216 0.6123837 1.4305196

V f4 [7, 7]
000000 da 0b 8f bf c7 b9 36 be b9 bd 83 bf 15 1e 86 bf
       -1.1175492 -0.17844306 -1.0292274 -1.047793
000010 be 25 b7 3d fa ac 01 40 b5 7f a0 3e 89 f4 f1 40
       0.089427456 2.0261827 0.31347433 7.5611005
000020 0f 24 65 3c 7e 71 1c 3e 7f 78 82 be 34 04 53 bf
       0.013985648 0.15277669 -0.25482556 -0.8242829
000030 c2 d7 c1 be fd 0d 2c 40 bd d3 67 c0 bb 70 bc 3f
       -0.37859923 2.6883538 -3.6222985 1.4721903
000040 56 88 5d c0 38 07 4e c0 78 a9 85 3f d7 b1 f9 3e
       -3.4614463 -3.2191906 1.0442343 0.48768494
000050 1b 36 05 40 6e ab 8b c0 f0 79 1c 40 9c e3 42 3f
       2.0814273 -4.3646765 2.4449425 0.76128554
000060 60 66 b1 3e e2 28 e7 3e ba 9d 61 bf ed 1d bf c0
       0.34648418 0.4514838 -0.88131297 -5.972403
000070 43 ec a1 40 91 54 8a 3f 21 e9 d2 bf 07 60 b5 bf
       5.0600905 1.0807058 -1.6477395 -1.416993
000080 99 90 31 40 cb 8b 4c bf e5 b9 09 c0 c5 f0 03 3e
       2.7744505 -0.7990081 -2.151971 0.12884815
000090 9c a5 90 3f 8f 1c 43 bf d2 9e 87 bf ba 36 cb be
       1.130054 -0.7621545 -1.0595343 -0.3969019
0000a0 b3 32 0e 40 24 96 cb c0 15 4d 87 40 17 c1 aa 3e
       2.2218444 -6.3620777 4.2281594 0.3335044
0000b0 00 63 40 3f 95 b9 83 3f d6 bd 48 c0 b5 57 a9 be
       0.7515106 1.029101 -3.1365867 -0.33074728
0000c0 59 20 30 40
       2.7519743

out_bias f4 [7]
000000 b1 32 2b bf 36 55 c5 3e 0f 88 f6 bd be 37 c4 be
       -0.66874224 0.38541573 -0.1203767 -0.38323778
000010 3c d1 c7 3e 59 1c 17 bf f0 3e 06 c0
       0.3902682 -0.5902763 -2.0975914
