hw1/py/net/reber_lstm8_0.pth (torch, 3867 bytes, 5 tensors)

W f4 [7, 32]
-0.11215017 0.11913504 0.281613 0.33834705 -0.35234228 0.10895134 -0.2852545 0.22654349
-0.04311633 0.21357854 -0.3102292 0.33945224 0.00028093765 -0.2400156 0.30033213 -0.26414025
0.33827278 0.26866946 0.19851066 -0.08472411 0.19614317 0.30834904 0.2527019 -0.1894649
-0.32701796 0.13201228 -0.31993473 0.1593983 -0.1457515 0.16219513 -0.024882935 -0.08064006
0.29455784 0.01898763 -0.35101998 -0.3364323 0.24830905 -0.10352591 0.18845446 -0.3352863
-0.036446933 0.31423363 0.124710076 -0.19292898 0.28420877 0.24629752 -0.26914498 -0.3049259
0.30093214 -0.13642427 0.19732045 -0.15569085 0.04967736 0.22477897 -0.15026437 0.14658207
-0.18566515 -0.028584545 0.08014188 -0.3485251 -0.29973432 -0.1469984 -0.30709478 0.069358245
0.19815457 0.32292315 -0.16684832 -0.23028612 0.103423275 0.0018377902 0.2778242 0.20493898
-0.18437827 0.18803541 0.19818501 0.28039798 -0.044795904 -0.11035639 -0.03270127 -0.061886985
-0.16116591 0.078984395 0.06377789 0.20565157 0.21588753 -0.17367601 0.2636449 0.06759127
0.2090064 0.21770485 0.12214182 0.32440367 -0.29244033 -0.14750205 0.2846245 0.34553418
0.2722873 -0.22346416 -0.31488532 -0.109797075 0.009695469 -0.063440196 0.25285253 -0.30723712
0.2832352 -0.12278347 -0.3196459 -0.12500815 0.16027306 0.29281637 -0.026299994 0.1854433
0.25044182 0.19531664 0.21892133 -0.23464067 0.029480001 0.27145252 -0.13003187 0.16871165
-0.17906973 0.33839658 -0.12268216 0.08559758 0.30813918 -0.2585409 -0.21434473 0.25560573
0.07276218 -0.17357317 0.21724348 0.09108442 -0.11527563 -0.33649233 -0.28128102 -0.23038912
-0.09494936 0.18021496 -0.31856343 -0.17404777 0.15137385 -0.23097347 -0.30981117 -0.24952117
-0.30601695 0.1428309 0.034593172 -0.33338925 0.058268502 -0.12906681 0.07034032 0.05760228
0.3036461 -0.11800284 -0.07743448 0.24416104 0.13409016 0.048923843 -0.29400787 0.076287426
-0.24821101 -0.15189102 0.24892731 -0.053901732 -0.32909575 -0.03194609 -0.23351294 0.172348
-0.3118335 -0.22844428 -0.08995016 -0.34939533 -0.0019090583 -0.3256264 0.103579625 -0.14274849
0.07317051 0.009777263 0.32585517 0.31941202 -0.0025647487 -0.2240878 0.027068593 -0.25267407
0.061210707 -0.31106743 -0.18696156 -0.064941645 0.01636015 0.28825045 0.067949034 -0.25585943
-0.169903 -0.1469154 0.26300097 -0.240442 0.04911334 -0.3471936 0.04735527 -0.23844129
-0.058136083 0.09263438 0.15476428 0.178498 -0.26492235 -0.29056707 -0.25344396 -0.2038463
0.16382717 -0.30755678 0.29815164 0.19611903 0.25441173 0.2572764 -5.2668503e-05 0.1482828
-0.24281627 0.1274054 0.31501704 0.0021817107 -0.17242669 -0.32559446 -0.22548296 0.34825876
00000000: fdae e5bd 12fd f33d 942f 903e d33b ad3e
00000010: 3566 b4be e121 df3d e10c 92be 04fb 673e
00000020: c09a 30bd 55b4 5a3e 5dd6 9ebe afcc ad3e
00000030: d04a 9339 a6c6 75be 22c5 993e 643d 87be
00000040: 1732 ad3e 0b8f 893e 6146 4b3e d683 adbd
00000050: c1d9 483e eddf 9d3e 2562 813e 1603 42be
00000060: e66e a7be 3a2e 073e 7cce a3be 4f39 233e
00000070: e23f 15be 7b16 263e 4cd7 cbbc 9e26 a5bd
00000080: 49d0 963e f28b 9b3c e4b8 b3be db40 acbe
00000090: ba44 7e3e 6405 d4bd 35fa 403e a5aa abbe
000000a0: 6149 15bd 3be3 a03e ff67 ff3d 2d8f 45be
000000b0: d083 913e 6b35 7c3e 5fcd 89be 3f1f 9cbe
000000c0: c713 9a3e ceb2 0bbe 5f0e 4a3e 6c6d 1fbe
000000d0: 7d7a 4b3d 752c 663e e7de 19be 9c19 163e
000000e0: 011f 3ebe 232a eabc 6d21 a43d e271 b2be
000000f0: c776 99be c086 16be 873b 9dbe b20b 8e3d
00000100: 08e9 4a3e 2f56 a53e 49da 2abe 20d0 6bbe
00000110: 95cf d33d 02e2 f03a f93e 8e3e 86db 513e
00000120: a8cd 3cbe 5b8c 403e 03f1 4a3e 5390 8f3e
00000130: e97b 37bd 8802 e2bd c4f1 05bd 357d 7dbd
00000140: ad08 25be 92c2 a13d fb9d 823d 5396 523e
00000150: 9f11 5d3e 20d8 31be 77fc 863e 4b6d 8a3d
00000160: c605 563e 05ee 5e3e 7e25 fa3d 3d18 a63e
00000170: bdba 95be c70a 17be 4dba 913e dbe9 b03e
00000180: 3e69 8b3e cad3 64be a638 a1be 4add e0bd
00000190: bfd9 1e3c efec 81bd e375 813e 2f4e 9dbe
000001a0: 3404 913e e675 fbbd a1a8 a3be 2302 00be
000001b0: 9f1e 243e 07ec 953e 1673 d7bc d9e4 3d3e
000001c0: e939 803e 1601 483e ea2c 603e a545 70be
000001d0: 0b80 f13c d3fb 8a3e 1327 05be bfc2 2c3e
000001e0: 0e5e 37be 5142 ad3e c940 fbbd c94d af3d
000001f0: 6bc4 9d3e 795f 84be 2f7d 5bbe c1de 823e
00000200: 5604 953d 2abd 31be 1375 5e3e 788a ba3d
00000210: a115 ecbd b948 acbe 1104 90be 20eb 6bbe
00000220: cf74 c2bd 458a 383e bf1a a3be 9439 32be
00000230: bf01 1b3e 4f84 6cbe 929f 9ebe 7a82 7fbe
00000240: 41ae 9cbe 4342 123e 92b1 0d3d ffb1 aabe
00000250: f4aa 6e3d 172a 04be 960e 903d 5ef0 6b3d
00000260: 8077 9b3e 79ab f1bd f895 9ebd 5a05 7a3e
00000270: ee4e 093e 5e64 483d 3388 96be 953c 9c3d
00000280: 072b 7ebe 5289 1bbe cde6 7e3e 10c8 5cbd
00000290: 3d7f a8be e7d9 02bd 041e 6fbe fe7b 303e
000002a0: a4a8 9fbe 4ced 69be ca37 b8bd f2e3 b2be
000002b0: 5e39 faba 81b8 a6be 8e21 d43d a92c 12be
000002c0: 6cda 953d d030 203c 7dd6 a63e f989 a33e
000002d0: 5815 28bb 4677 65be f4be dd3c 7f5e 81be
000002e0: 14b8 7a3d 3b44 9fbe da72 3fbe 2000 85bd
000002f0: b905 863c 9095 933e dd28 8b3d 0200 83be
00000300: 0dfb 2dbe fe70 16be 10a8 863e 6d36 76be
00000310: 122b 493d 5cc3 b1be 99f7 413d f429 74be
00000320: 1a20 6ebd 18b7 bd3d 877a 1e3e 2ec8 363e
00000330: e7a3 87be 35c5 94be 68c3 81be 16bd 50be
00000340: 4fc2 273e 1578 9dbe 55a7 983e 6dd3 483e
00000350: 4142 823e bbb9 833e 60e8 5cb8 72d7 173e
00000360: d4a4 78be 9076 023e ea49 a13e 08fb 0e3b
00000370: 9f90 30be 51b4 a6be 01e5 66be f94e b23e

U f4 [8, 32]
-0.3350258 -0.3152691 -0.2166896 0.16525044 0.25465584 -0.20725931 0.28590006 0.28506166
-0.29027802 -0.2675287 -0.058393005 -0.27218798 -0.14652604 0.33775726 -0.28403684 -0.34187698
-0.28523695 0.05978904 0.3045933 0.3096893 0.020845745 0.23116435 0.1419701 0.24483345
-0.045543928 0.13765591 0.30093285 -0.31627852 -0.05870845 -0.13469434 0.34329456 -0.20160526
-0.0842838 -0.31683454 0.33296302 -0.27852923 0.2231561 -0.20892237 -0.31824788 0.02176224
-0.11327277 -0.12414987 -0.3198155 0.31675118 -0.29938555 -0.11182768 -0.13524486 0.32165438
0.0211616 0.21514478 -0.30428067 0.1802027 0.23148158 -0.11272195 -0.33581746 -0.084666975
-0.03715994 -0.22753927 -0.15194322 -0.23159136 -0.104140386 0.31298172 -0.18116453 -0.056299727
-0.31089628 0.17652237 -0.0035131383 0.24435382 0.17457826 0.23433957 0.2789825 -0.15656792
0.04244498 0.16841564 -0.3213528 -0.10558983 0.20894858 0.16806246 -0.1155492 -0.044420756
0.08162142 0.07665791 0.018739767 -0.1793975 -0.3435705 0.25602573 -0.14430359 -0.19125277
-0.2236605 0.05517075 -0.08992247 0.28841957 0.24809933 0.18266572 0.32377797 -0.2532088
-0.30626586 0.32372296 -0.22935583 -0.29435676 -0.24191055 -0.26064786 0.20413463 0.2758507
0.19445789 0.2614796 0.05398665 0.28856388 0.14205888 -0.119195685 -0.14751005 0.3394242
-0.3039878 0.26576224 0.12593523 0.21971092 -0.076302566 0.11456097 0.25224015 0.20244841
0.070098676 -0.23245814 0.27713785 -0.1283061 0.20331988 0.24266256 -0.043287117 0.14281441
0.31854638 -0.2679689 -0.32137454 -0.28480798 0.3099276 0.0645598 0.14123106 -0.04473598
0.32864693 -0.12981169 0.3374892 0.30318326 -0.12834382 0.35052598 0.2708815 -0.07096568
0.11834687 0.32611868 -0.057513796 -0.30318218 0.13813731 -0.07029084 -0.18913049 0.24348098
0.056199852 0.16488072 -0.33739704 0.17301916 -0.09671462 -0.19999792 0.06952319 0.25202405
0.032773808 0.2812058 0.27076054 -0.2851485 -0.35189116 -0.016381968 0.33476892 0.2425627
-0.039211832 0.1889358 -0.08003754 0.15941988 0.27329308 -0.27538854 0.09958551 0.055024132
-0.13699345 -0.06660119 -0.04201854 0.005105708 -0.10207748 0.02644974 0.0100392755 -0.2331939
-0.21931024 -0.31548232 0.22585693 -0.010510103 0.108736746 -0.29525113 0.12633699 0.11656027
0.13524796 -0.007457211 -0.2509017 -0.07743267 -0.07321342 -0.31465724 0.33684325 0.11803083
-0.009362032 -0.15636702 0.11751594 0.3259444 0.19725335 -0.34242833 0.040718436 0.08278378
-0.15387847 -0.0057753637 0.24980055 0.24197337 -0.076321214 -0.07611481 -0.29000914 -0.3040684
-0.101558 0.03277119 0.14806332 -0.07413053 0.23410703 -0.065769345 0.33784556 -0.0017254766
-0.004937024 -0.25015453 -0.07845031 -0.005803532 -0.25799978 0.23079114 -0.0861316 0.0026427628
0.32076254 0.11171137 -0.018523898 0.2183656 0.3512619 -0.01819311 -0.033247128 -0.05525781
0.24749884 -0.094152234 0.31855956 0.04785591 -0.1993575 -0.1556821 -0.20571849 0.14473109
0.02431373 -0.23365599 0.26859316 0.20608516 0.06912013 -0.059372358 0.30344588 0.301738
00000000: 8088 abbe f46a a1be e1e3 5dbe 6937 293e
00000010: 4062 823e c93b 54be 7e61 923e 9af3 913e
00000020: 529f 94be 86f9 88be 812d 6fbd 395c 8bbe
00000030: ec0a 16be 85ee ac3e 476d 91be 800a afbe
00000040: 940a 92be 5ae5 743d a7f3 9b3e 998f 9e3e
00000050: b2c4 aa3c 59b6 6c3e 9c60 113e 9fb5 7a3e
00000060: 458c 3abd acf5 0c3e df13 9a3e 42ef a1be
00000070: 4678 70bd 50ed 09be 4ec4 af3e 9c71 4ebe
00000080: fc9c acbd 2338 a2be 217a aa3e 629b 8ebe
00000090: 0883 643e bfef 55be 63f1 a2be ba46 b23c
000000a0: 8efb e7bd 4942 febd dbbe a3be 362d a23e
000000b0: 1049 99be e905 e5bd a17d 0abe e2af a43e
000000c0: 175b ad3c ea4e 5c3e adca 9bbe 0e87 383e
000000d0: 8209 6d3e c4da e6bd 44f0 abbe e165 adbd
000000e0: 0535 18bd 0e00 69be 0197 1bbe 4926 6dbe
000000f0: 8e47 d5bd 243f a03e 3283 39be 8b9a 66bd
00000100: cc2d 9fbe 48c2 343e ae3c 66bb e337 7a3e
00000110: a5c4 323e b6f6 6f3e cbd6 8e3e 5753 20be
00000120: cada 2d3d 2675 2c3e 5b88 a4be 7b3f d8bd
00000130: 9ef6 553e 9118 2c3e 0fa5 ecbd 8af2 35bd
00000140: 2229 a73d d3fe 9c3d 2484 993c fab3 37be
00000150: 79e8 afbe ce15 833e 52c4 13be c4d7 43be
00000160: 4207 65be b9fa 613d 4629 b8bd bbab 933e
00000170: c00d 7e3e b90c 3b3e 3ac6 a53e 95a4 81be
00000180: e1ce 9cbe 04bf a53e 41dc 6abe eeb5 96be
00000190: 66b7 77be a373 85be ab08 513e 4e3c 8d3e
000001a0: f81f 473e a7e0 853e 1b21 5d3d a5be 933e
000001b0: e277 113e de1c f4bd e00c 17be 02c9 ad3e
000001c0: 4aa4 9bbe fd11 883e 2af5 003e e6fb 603e
000001d0: 8544 9cbd f19e ea3d 9f25 813e a34e 4f3e
000001e0: e58f 8f3d 8209 6ebe 03e5 8d3e ad62 03be
000001f0: 1633 503e 897c 783e d54d 31bd f13d 123e
00000200: 8318 a33e 3833 89be 348b a4be 5ad2 91be
00000210: d5ae 9e3e ee37 843d e09e 103e 133d 37bd
00000220: 6944 a83e 5bed 04be 62cb ac3e d63a 9b3e
00000230: 906c 03be 2478 b33e fbb0 8a3e 7456 91bd
00000240: d85f f23d 07f9 a63e 9693 6bbd b23a 9bbe
00000250: de73 0d3e a5f4 8fbd 6cab 41be 1453 793e
00000260: d131 663d 7ed6 283e 4ebf acbe ef2b 313e
00000270: 5112 c6bd 41cc 4cbe 2d62 8e3d 4c09 813e
00000280: d43d 063d 35fa 8f3e 20a1 8a3e fcfe 91be
00000290: 142b b4be 7a33 86bc d566 ab3e 5b62 783e
000002a0: 969c 20bd 6378 413e b9ea a3bd f73e 233e
000002b0: 12ed 8b3e baff 8cbe 7df3 cb3d fc60 613d
000002c0: 0348 0cbe 3466 88bd a21b 2cbd c84d a73b
000002d0: ff0d d1bd 20ad d83c c67b 243c 62ca 6ebe
000002e0: dd92 60be e686 a1be 0a47 673e 9132 2cbc
000002f0: 5fb1 de3d 282b 97be 7c5e 013e 27b7 ee3d
00000300: 717e 0a3e 9f5b f4bb 3076 80be 0595 9ebd
00000310: ebf0 95bd c11a a1be b876 ac3e 26ba f13d
00000320: 3563 19bc ad1e 20be 32ac f03d 2fe2 a63e
00000330: c8fc 493e c452 afbe 60c8 263d 8b8a a93d
00000340: 5192 1dbe 433f bdbb b7cb 7f3e dec7 773e
00000350: 4c4e 9cbd 15e2 9bbd 147c 94be daae 9bbe
00000360: a4fd cfbd 153b 063d e99d 173e bfd1 97bd
00000370: c1b9 6f3e 14b2 86bd 18fa ac3e 6329 e2ba
00000380: c2c6 a1bb 4114 80be 8eaa a0bd 8e2b bebb
00000390: 8c18 84be 8354 6c3e c465 b0bd 3432 2d3b
000003a0: fd3a a43e eec8 e43d 6ebf 97bc 3b9b 5f3e
000003b0: 9ad8 b33e b809 95bc 242e 08bd 0356 62bd
000003c0: 5670 7d3e e3d2 c0bd 3d1a a33e 8f04 443d
000003d0: 5f24 4cbe 216b 1fbe dea7 52be 6334 143e
000003e0: 962d c73c 8443 6fbe 0b85 893e fd07 533e
000003f0: db8e 8d3d 6e30 73bd 425d 9b3e 677d 9a3e

hid_bias f4 [32]
0.2986479 -0.33413664 -0.31256253 -0.28507632 -0.2659517 0.28500596 -0.20834655 -0.16893037
0.2666259 0.27932462 0.035942018 -0.07726207 0.2245628 -0.25558558 -0.2473832 -0.31457353
0.103190206 -0.08010961 -0.312037 -0.29836854 0.048457462 0.017003614 0.19439782 0.25243226
0.036114972 0.24624428 0.1409524 -0.0638346 0.24774444 -0.19940798 -0.079008915 0.28677848
00000000: 61e8 983e f513 abbe 3208 a0be 86f5 91be
00000010: d22a 88be 4dec 913e cc58 55be 15fc 2cbe
00000020: 3183 883e a303 8f3e f037 133d 933b 9ebd
00000030: caf3 653e 1ddc 82be 0652 7dbe c80f a1be
00000040: 6355 d33d 8210 a4bd 50c3 9fbe c3c3 98be
00000050: 557b 463d 2a4b 8b3c 3910 473e cd3e 813e
00000060: 4bed 133d 7627 7c3e d355 103e b7bb 82bd
00000070: b8b0 7d3e 9b31 4cbe 6dcf a1bd a1d4 923e

V f4 [8, 7]
-0.23126264 0.20639364 -0.13735056 -0.28529167 -0.02349524 -0.15318595 -0.26515937 -0.23033583
0.21576671 -0.30389723 0.15308115 0.10736305 0.17155032 0.19195582 0.30185562 -0.07512782
0.07385935 0.08152931 0.026326248 -0.18791515 0.019665353 0.30191568 -0.21139374 -0.13535593
0.1836994 -0.015794385 0.13035376 0.2238483 -0.34851575 -0.09764184 -0.27340516 0.2581329
0.17441304 -0.005324972 -0.018232841 0.10290452 0.2666321 0.07623254 0.13100646 0.051409442
0.2749534 -0.2598443 -0.22534679 -0.08872242 -0.029573422 -0.14529242 -0.12963851 0.059880365
-0.30474535 0.14520304 0.17110966 0.20764874 -0.110930614 0.34213337 -0.1754158 0.041736137
00000000: 1dd0 6cbe db58 533e a0a5 0cbe c011 92be
00000010: 1779 c0bc c7dc 1cbe f8c2 87be 28dd 6bbe
00000020: f3f1 5c3e 6b98 9bbe 4ec1 1c3e 29e1 db3d
00000030: e3aa 2f3e 1190 443e d28c 9a3e 9ddc 99bd
00000040: 9243 973d d7f8 a63d 25aa d73c d46c 40be
00000050: 3c19 a13c b194 9a3e 9a77 58be bf9a 0abe
00000060: b21b 3c3e 3a63 81bc 757b 053e 7d38 653e
00000070: a870 b2be 72f8 c7bd c3fb 8bbe ff29 843e
00000080: 5599 323e 1a7d aebb 0a5d 95bc 9bbf d23d
00000090: 0184 883e ce1f 9c3d 8f26 063e b592 523d
000000a0: b1c6 8c3e 500a 85be 4fc1 66be 1ab4 b5bd
000000b0: f643 f2bc 89c7 14be f5bf 04be 1d45 753d
000000c0: 9507 9cbe 1bb0 143e 5f37 2f3e dfa1 543e
000000d0: 972f e3bd 1b2c af3e 33a0 33be 83f3 2a3d

out_bias f4 [7]
0.20056196 -0.058031548 0.24229042 -0.08384828 -0.25735587 0.19213803 0.0007934101
00000000: 1d60 4d3e 7db2 6dbd fb1a 783e a6b8 abbd
00000010: 26c4 83be d5bf 443e dafc 4f3a
