hw1/py/net/reber_srn2_20.pth (torch, 2071 bytes, 6 tensors)

H0 f4 [2]
-0.8130016 0.89088416
00000000: df20 50bf fc10 643f

W f4 [7, 2]
-1.3406333 -0.02252161 1.0163302 1.6164638 5.8065753 -1.1962172 1.0726483 0.7256789
-2.2074194 1.991845 0.8579077 -2.6345546 -8.585375e-39 -1.2085661e-38
00000000: df99 abbf 3d7f b8bc 1c17 823f 49e8 ce3f
00000010: 77cf b940 a51d 99bf 8a4c 893f 18c6 393f
00000020: 5c46 0dc0 c7f4 fe3f d79f 5b3f 8b9c 28c0
00000030: 887c 5d80 e899 8380

U f4 [2, 2]
1.3091182 1.555986 -3.7433577 -0.26325142
00000000: 2f91 a73f 8d2a c73f 2c93 6fc0 e4c8 86be

hid_bias f4 [2]
0.10763578 0.3543268
00000000: 2670 dc3d 536a b53e

V f4 [2, 7]
0.97795403 -2.6319766 2.7944899 3.4497538 -2.1343288 -2.3015056 6.7348495 -0.7401226
0.25774062 2.4582016 1.7560171 -2.242003 0.18565302 -7.4980235
00000000: 325b 7a3f 4e72 28c0 ecd8 3240 c4c8 5c40
00000010: d898 08c0 de4b 13c0 e383 d740 ad78 3dbf
00000020: 94f6 833e 2d53 1d40 2bc5 e03f fa7c 0fc0
00000030: d31b 3e3e cfef efc0

out_bias f4 [7]
-5.141616 0.5212032 0.012444555 0.10641493 -0.47776455 1.0126531 -2.3423755
00000000: 1e88 a4c0 936d 053f 3fe4 4b3c 12f0 d93d
00000010: 8e9d f4be 9e9e 813f 7be9 15c0
