hw1/py/net/reber_lstm8_20.pth (torch, 3867 bytes, 5 tensors)

W f4 [7, 32]
0	0x4041d268	3.0284672
1	0x3ea3b956	0.31977338
2	0x3ff7bf0e	1.935518
3	0x3fdc0b5d	1.7190968
4	0xbe3eb3c1	-0.18623258
5	0x40064499	2.0979369
6	0x3fe527f7	1.7902821
7	0x402d4df5	2.7078831
8	0xbfd51b57	-1.6648968
9	0x3e536eec	0.20647782
10	0xbf697196	-0.91188943
11	0x3fb53bec	1.4158912
12	0xbea49f2a	-0.32152683
13	0x3e9ab96c	0.3021959
14	0xbf6c2558	-0.9224448
15	0xbf461455	-0.77374774
16	0x4036b0fc	2.8545523
17	0x3ec27872	0.37982517
18	0x3f852bcc	1.0403991
19	0xbf9ca5ac	-1.2238059
20	0x3e44440e	0.19166586
21	0x3fd1bb6c	1.6385322
22	0x400eed7f	2.2332456
23	0x40157af1	2.3356287
24	0x3fb95d1d	1.4481541
25	0x3f6470d5	0.8923467
26	0x3f401cc9	0.7504392
27	0x3fa84330	1.3145504
28	0x3f88d925	1.0691267
29	0x3ffc56af	1.9713954
30	0x400d2e4f	2.2059515
31	0x402b2e01	2.6746829
32	0x4009cf3a	2.153273
33	0x3f82bdc9	1.0214168
34	0x3d0d91d6	0.034562908
35	0x3dfcce5b	0.12344047
36	0x3f1a5126	0.6028007
37	0xbdb15242	-0.086582676
38	0x3f1ceec6	0.6130184
39	0xbf451437	-0.7698397
40	0xc00712a3	-2.1105125
41	0xbf18781a	-0.5955826
42	0x3e2d8e54	0.16948825
43	0x3e54e253	0.20789461
44	0x3f752405	0.95758086
45	0x3f895cf7	1.0731496
46	0x3e64d438	0.2234658
47	0xbf2722a2	-0.6528722
48	0xbe5ea3a4	-0.21742111
49	0xbfb270d5	-1.3940684
50	0x3f0feddd	0.56222326
51	0xbeeb02b4	-0.459005
52	0x3f068f56	0.52562463
53	0x3f2d3e84	0.67673516
54	0xbfd39861	-1.6530877
55	0xbf09f929	-0.53895813
56	0x3e0d21b5	0.1378239
57	0x3f12160c	0.5706489
58	0x3f2e8ddb	0.68185204
59	0xbf22c3ce	-0.63580024
60	0xbfa8b5b0	-1.3180447
61	0x3f00c683	0.50302905
62	0x3f165db2	0.5873672
63	0x3d44c062	0.048035033
64	0x3eccd806	0.40008563
65	0xbf1684f4	-0.5879662
66	0xbfd0bb60	-1.6307182
67	0x3e14841c	0.1450352
68	0x3e5ea99c	0.21744388
69	0xbf10773e	-0.5643195
70	0x3f11092f	0.5665464
71	0xbe34a999	-0.17642821
72	0x3fb55138	1.4165411
73	0x3e97c05a	0.2963894
74	0xbe610c1f	-0.2197728
75	0xc017f7e3	-2.3745048
76	0x3edceca2	0.43149287
77	0x3d471822	0.048607
78	0x3f8916f1	1.0710126
79	0x3fc4bee5	1.5370756
80	0xc0083d62	-2.1287465
81	0xbf246c2a	-0.64227545
82	0x3d004c06	0.0313225
83	0x3fc9604d	1.5732514
84	0x3e8709d3	0.26374683
85	0xc007c767	-2.1215456
86	0xbf1c5e64	-0.6108153
87	0x3d6639d3	0.05620749
88	0x3f3a2d76	0.7272562
89	0x3ece0898	0.40240932
90	0xbf56d5cd	-0.83919984
91	0x3de13ad8	0.10997552
92	0x3e750bd7	0.23930298
93	0x3f55a6d3	0.8345768
94	0x3ec45d98	0.38352656
95	0x3f54e70f	0.8316507
96	0x3ecc6844	0.39923298
97	0x3fc506ab	1.539266
98	0x3f783f45	0.9697154
99	0x3f38ecd1	0.72236353
100	0xbc252def	-0.010081752
101	0xbf5b753d	-0.85725766
102	0x3ff55229	1.9165698
103	0xbfa7d4ff	-1.3111876
104	0xbf1f4c66	-0.6222595
105	0x3f07de25	0.5307334
106	0x3fa2b83b	1.2712473
107	0x3f5a02b5	0.8516038
108	0x3e3ee785	0.18643005
109	0xbf14b28c	-0.5808494
110	0x3ff50b8c	1.9144149
111	0xbf5f64d4	-0.87263227
112	0xbf1f9d05	-0.6234897
113	0x3f512437	0.81695884
114	0xbc524514	-0.012833852
115	0xbf5da19a	-0.8657471
116	0xbc716c58	-0.014735304
117	0x3fb8e073	1.4443496
118	0xc01faf47	-2.495073
119	0xbf3a9cc5	-0.7289546
120	0x3f313269	0.69217545
121	0x3e8ba6c5	0.27275673
122	0xbe666d74	-0.2250269
123	0x3f7f6eb8	0.9977832
124	0x3e9e0bd8	0.3086841
125	0xbf1f51b6	-0.62234056
126	0x3fe0f289	1.7574016
127	0xbe81fc48	-0.25387788
128	0xc00c1966	-2.1890502
129	0x3ea30d86	0.31846255
130	0x3f1aaec0	0.604229
131	0x3f5c9a44	0.8617289
132	0x3de7bd1f	0.11315369
133	0x3f03e3c9	0.5151945
134	0x3e444f90	0.19170976
135	0xbe59b7ea	-0.21261564
136	0x3fd8df02	1.6943057
137	0x3fc2f10d	1.5229813
138	0x3f3bacad	0.7331036
139	0x3e03aebe	0.12859628
140	0xbb98b337	-0.004660036
141	0x3dd46e4f	0.10372602
142	0xbf81f842	-1.0153887
143	0xbf2b556b	-0.6692721
144	0xbfa3f9ad	-1.281057
145	0x3f91aa4c	1.1380095
146	0xbeca3c5a	-0.3949917
147	0xbfb14a2a	-1.3850758
148	0xbed243e0	-0.4106741
149	0x3f3807ba	0.7188679
150	0xbf9a1927	-1.2038926
151	0xbf19e769	-0.6011873
152	0x3f5a32eb	0.85233945
153	0xbfc6cc2c	-1.5531058
154	0xbf7f555d	-0.9973963
155	0x3f82ae5f	1.0209464
156	0x3eb1ebcf	0.3475022
157	0x3ea72d80	0.326519
158	0x3ee3804f	0.4443383
159	0xbe0bbb5d	-0.13645692
160	0x3f240212	0.6406566
161	0xbf5e98d8	-0.8695197
162	0xbdb9cb92	-0.09072031
163	0x3ec93c92	0.39304024
164	0x3fd24713	1.642794
165	0x3fae03c8	1.3594904
166	0x3f8aebe6	1.085324
167	0x3f2d33fa	0.67657435
168	0x3f8656a3	1.049519
169	0xbf319e0f	-0.69381803
170	0x3e958eb0	0.29210424
171	0xbf3e6ae7	-0.7438187
172	0xbe57033e	-0.2099733
173	0xbee3054a	-0.44339973
174	0xbf6bebc0	-0.921566
175	0xbed9f34d	-0.42568436
176	0x3f4ebce0	0.8075695
177	0xc002ef52	-2.045857
178	0xbd444d02	-0.047925003
179	0x3fecc1af	1.8496608
180	0xbe1e109d	-0.15436025
181	0xbf8d2f96	-1.1030147
182	0x3ef19ee9	0.4719155
183	0xbe969c66	-0.29416198
184	0x3f4e3cbf	0.8056144
185	0x403a90dd	2.9150918
186	0x3fc39c68	1.5282106
187	0x3f5e7b2d	0.869067
188	0x40778600	3.8675537
189	0x3fa6e759	1.3039352
190	0x3f024500	0.50886536
191	0xbed036ae	-0.40666717
192	0x3c0e6474	0.008690942
193	0x40019712	2.0248456
194	0x3fa64725	1.2990462
195	0x3f761346	0.9612316
196	0x3ec53be4	0.38522255
197	0x3ffc46a0	1.9709053
198	0x3cefd53e	0.029276486
199	0x408ad873	4.338922
200	0xbe6a4181	-0.2287655
201	0x3e69d864	0.22836453
202	0x3fc77b84	1.5584569
203	0xbf683989	-0.9071279
204	0xbe284ee7	-0.16436349
205	0x402dc664	2.7152338
206	0xbfbf1801	-1.49292
207	0xbff16c4b	-1.8861173
208	0x3f9597de	1.1686971
209	0x3f75487b	0.9581372
210	0xbe7f931c	-0.24958462
211	0xbfc23a54	-1.517405
212	0xbdfa19be	-0.12211941
213	0xc025fdc0	-2.5936127
214	0x3fc089a6	1.5042007
215	0x401432f7	2.3156106
216	0x3d5fa612	0.054601736
217	0x4039a1ce	2.9005008
218	0x400d0961	2.2036974
219	0x3f28c826	0.659304
220	0xbf2ebab8	-0.6825366
221	0xbfd1a2ff	-1.6377867
222	0x3f798198	0.9746337
223	0x4056408c	3.3476896

U f4 [8, 32]
0	0xbf818ee7	-1.0121735
1	0x3dd34c04	0.10317233
2	0x3f285465	0.65753776
3	0xbe3b4d8f	-0.18291305
4	0x3f208a56	0.62711084
5	0x3ff0d787	1.8815774
6	0x402b9bb7	2.681379
7	0x3f37e0aa	0.71827185
8	0xbe8bee02	-0.27330023
9	0xba895498	-0.0010477481
10	0x3f9ca2e8	1.2237215
11	0x3eba7a9f	0.36421677
12	0xbee118e0	-0.4396429
13	0x3f57857a	0.84188044
14	0xc0072e84	-2.112214
15	0xbea6ae10	-0.32554674
16	0xbf057521	-0.5213185
17	0x3e97b014	0.29626524
18	0x3eb0189b	0.34393772
19	0x3ebb7240	0.36610603
20	0x3cf9e5c0	0.030505061
21	0xbdd758e3	-0.10515001
22	0xbcf259d4	-0.029583849
23	0x3ef2b5ea	0.47404414
24	0x3ddd300a	0.10800178
25	0x3e12db1e	0.14341399
26	0x3eabb85c	0.33539093
27	0xbf630f3c	-0.8869512
28	0x3f15c7de	0.585081
29	0x403f2781	2.9867861
30	0x3ea8e814	0.32989562
31	0x3e9a9404	0.30191052
32	0x3fbbc46e	1.466932
33	0x3fa1571a	1.2604706
34	0x3f672bcf	0.9030122
35	0x3f92cf2c	1.1469474
36	0x3f545430	0.8294096
37	0x402e1228	2.7198582
38	0x3f965cf6	1.174712
39	0x3ec9e063	0.39429006
40	0xc01aa822	-2.416512
41	0x3ee90b3e	0.4551639
42	0x3f8e843c	1.1134105
43	0x3e9a51b7	0.30140468
44	0x3e4317d8	0.19052064
45	0x3e5b9426	0.21443233
46	0xbf660614	-0.89853024
47	0x3eae033b	0.3398684
48	0x401043c9	2.2541373
49	0x3f365008	0.7121587
50	0xbeb90f5b	-0.36144528
51	0x3e30ca05	0.17264564
52	0x3f146006	0.5795902
53	0x3c2f8f08	0.010715254
54	0xbe742324	-0.2384153
55	0xbe9d5302	-0.30727392
56	0x3f7436e7	0.95396274
57	0x3e283ed4	0.16430217
58	0xbd9dafaa	-0.07699521
59	0x3f24de2f	0.64401525
60	0xbf49b916	-0.78798044
61	0x3fdb60c3	1.7138904
62	0x3fb5eb06	1.4212348
63	0x3e877587	0.26456854
64	0xc034bde8	-2.824091
65	0x3d270fcd	0.040786553
66	0x3ed7a73e	0.42119783
67	0xbfb67214	-1.4253564
68	0x3f7fd6d3	0.9993717
69	0xbd142382	-0.036166675
70	0xbc1bd67e	-0.009511588
71	0xbcc10f6c	-0.023566924
72	0x4004dde2	2.0760427
73	0xbfb5ca1f	-1.4202307
74	0xbf9ba957	-1.2161053
75	0x3f23ee1f	0.6403522
76	0xbfa658da	-1.2995865
77	0x3a241a2d	0.0006260004
78	0xbed9c002	-0.42529303
79	0xbec4e40d	-0.3845524
80	0x3eca3b64	0.39498436
81	0xbe3a0b8b	-0.18168466
82	0x3f406097	0.75147384
83	0xbf26bc37	-0.65130943
84	0x3e994787	0.29937384
85	0x3eb10a56	0.34578198
86	0x3c18e105	0.009330993
87	0xbd8b3f53	-0.067991875
88	0xbfd81a87	-1.6883096
89	0xbecd269d	-0.40068522
90	0xbe820e0e	-0.25401348
91	0xbfaacfc0	-1.334465
92	0x3f64df36	0.8940309
93	0xbf247be2	-0.6425153
94	0xbf4a20f0	-0.7895651
95	0xbeb49433	-0.35269317
96	0x3e870cb3	0.26376876
97	0xbfce42bb	-1.6114115
98	0xbfa04a48	-1.2522669
99	0xbf84d41c	-1.0377231
100	0xbfb9363c	-1.4469676
101	0xc0363b2d	-2.8473618
102	0xbfc2b202	-1.5210574
103	0x3e4b5e3c	0.19860166
104	0xbcf0d8d7	-0.029400272
105	0xbeca2500	-0.39481354
106	0xbfe1a899	-1.7629577
107	0x3d4312d0	0.047625363
108	0xbdad5787	-0.0846396
109	0xbe4d2c9b	-0.20036547
110	0x3eae474a	0.34038764
111	0x3e82ccad	0.2554678
112	0xbf94e5bc	-1.1632609
113	0xbe3acf3d	-0.18243118
114	0x3f6a8c2b	0.9162013
115	0xbf601ef3	-0.87547225
116	0xbf019a98	-0.50626516
117	0x3ec21205	0.37904373
118	0x3e95b19a	0.29237062
119	0x3eaf5806	0.34246844
120	0xbf9ba3ed	-1.2159401
121	0xc06fdf86	-3.7480178
122	0xc0010752	-2.0160718
123	0xbe2b76df	-0.16744564
124	0xbee5b9ec	-0.4486841
125	0xbff38519	-1.9024993
126	0xbf91c103	-1.1387028
127	0xbd3780c3	-0.04480053
128	0x400bfc09	2.187258
129	0x3f2f450a	0.6846472
130	0x3b9c28f8	0.004765626
131	0x3ff9bc70	1.9510632
132	0x3f62e38a	0.8862845
133	0x3e01325d	0.12616868
134	0x3f6e4284	0.93070245
135	0x3ee72e01	0.45152286
136	0xbf59d1a4	-0.8508551
137	0x3e955fb9	0.29174593
138	0x3f56a589	0.83846337
139	0xbd7ec302	-0.062197693
140	0x3f37d50f	0.71809477
141	0x3f402428	0.7505517
142	0x3ee31e64	0.44359124
143	0x39ac79b7	0.0003289708
144	0xbf86b203	-1.0523075
145	0x3f203ce0	0.6259289
146	0xbfd7e6d4	-1.6867318
147	0xbef78821	-0.48346046
148	0x3ef8aaa3	0.48567685
149	0xbc1308e1	-0.008974285
150	0xbf663e0f	-0.89938444
151	0xbdd2aa8d	-0.10286436
152	0x401719e0	2.3609543
153	0x3f352a38	0.70767546
154	0xbd138c59	-0.036022518
155	0x3ff35a0c	1.9011855
156	0x3e9b6958	0.30353808
157	0x3e8d541b	0.2760323
158	0x3fd74253	1.6817116
159	0x3f7a2cb7	0.9772448
160	0xbf827aad	-1.0193688
161	0x3ede4867	0.43414614
162	0x3dbbecc2	0.09176017
163	0x3d6385f3	0.055547666
164	0x3f40f83a	0.75378764
165	0xbf8d5ef8	-1.1044607
166	0x3fd4bdfd	1.662048
167	0x3f102401	0.5630494
168	0x4015f555	2.3430989
169	0xbe7ef4a9	-0.24898018
170	0xbf32dd59	-0.69869
171	0x3f910841	1.1330644
172	0xb984ca77	-0.0002532785
173	0xbf665135	-0.8996766
174	0xbf136d9c	-0.57589126
175	0xbf6e47f9	-0.9307857
176	0xbf40a710	-0.7525492
177	0xbeb4151b	-0.35172352
178	0xbf17cb33	-0.5929443
179	0xbec0cf95	-0.37658373
180	0x3e59230a	0.21204773
181	0x3e0502ff	0.12989424
182	0x3da4cac8	0.0804649
183	0xbf98996b	-1.192182
184	0x3f2d2334	0.6763184
185	0x3f92c92b	1.1467642
186	0x3e85e62d	0.26152173
187	0xbd2a373d	-0.041556586
188	0x3f74044a	0.95319045
189	0x3ef867f7	0.4851682
190	0x3f31c33e	0.6943854
191	0x3eb7130e	0.35756725
192	0xc01c01ba	-2.4376054
193	0xbed5b0b5	-0.4173638
194	0xbea632d8	-0.32460666
195	0xbfde3675	-1.7360369
196	0xbfddd168	-1.7329531
197	0xbf1ddc4e	-0.61664283
198	0x3c3d086d	0.011537653
199	0x3e966275	0.29371992
200	0x3f03708d	0.51343614
201	0xbf97d6f8	-1.1862478
202	0x3f091928	0.5355401
203	0xbc9c8fee	-0.0191116
204	0xbe997224	-0.29969895
205	0x3eb8ad73	0.3606983
206	0xbecb335e	-0.39687628
207	0x3f0220ce	0.50831306
208	0xc0033fb9	-2.0507643
209	0xbf977b7f	-1.1834563
210	0x4019ace3	2.4011772
211	0x3eac8e09	0.33702114
212	0xbfac0e52	-1.344187
213	0xbe8dca96	-0.27693623
214	0xbf9b3ada	-1.2127335
215	0xbe32bd4d	-0.17455025
216	0xbf81298b	-1.0090803
217	0xbf662eff	-0.8991546
218	0xbecadd27	-0.3962185
219	0xbfb49239	-1.4107124
220	0x3f30910c	0.68971324
221	0xbed40bbb	-0.414152
222	0xbf5c108d	-0.85962754
223	0x3c43df22	0.0119550545
224	0xbf2ec6f1	-0.6827231
225	0x3f99c944	1.2014546
226	0x3fb9b111	1.4507161
227	0x3ea658d9	0.3248966
228	0xbae7feaa	-0.0017699797
229	0x404af111	3.1709635
230	0xbf559356	-0.8342794
231	0x3e7d7f65	0.24755628
232	0xbee176ca	-0.4403594
233	0x3d8d0015	0.06884781
234	0x3f6b2326	0.9185051
235	0xbf0a9de9	-0.541472
236	0x3f3b45dd	0.7315348
237	0x3fe0b0ad	1.7553917
238	0xbe8bc3b2	-0.2729774
239	0x3eac0753	0.33599338
240	0xbf5fd899	-0.87439877
241	0x3d8dcf2e	0.06924282
242	0x3eab01d8	0.33399844
243	0x3f86a13a	1.0517952
244	0xbe0c40c4	-0.13696581
245	0xbda1b5d5	-0.0789601
246	0xbf3da0c4	-0.74073434
247	0x3e92ce07	0.2867281
248	0x3f0556ed	0.52085763
249	0x3f9f384e	1.2439058
250	0x40249936	2.5718513
251	0x3d984a90	0.07436097
252	0x3d2717a5	0.040794034
253	0xbf941f1a	-1.1571991
254	0x3f07462e	0.5284146
255	0x3f016618	0.5054641

hid_bias f4 [32]
0	0x3fd77394	1.6832147
1	0x3e6906ee	0.2275655
2	0x3f6f863d	0.93564206
3	0x3fca5f42	1.581032
4	0x3d07550e	0.0330401
5	0x3fac740c	1.3472915
6	0x3fc8eecb	1.5697874
7	0x3f1d3c7d	0.6142042
8	0xbe52cb43	-0.2058535
9	0x3f02054e	0.50789344
10	0x3f25d19c	0.64772964
11	0xbeab42c4	-0.33449376
12	0x3ea58685	0.32329193
13	0xbd0fc28b	-0.03509764
14	0xbf54857b	-0.83016175
15	0xbeb72a18	-0.35774302
16	0xbe87de32	-0.2653671
17	0xbdcbc1b2	-0.09949054
18	0x3d98bea1	0.074582346
19	0xbf11973f	-0.5687141
20	0x3dda5dac	0.10662398
21	0x3e24eb25	0.16105326
22	0xbd7f676d	-0.062354494
23	0x3e962c28	0.29330564
24	0x402e52f4	2.723813
25	0x3f9598c1	1.1687242
26	0x3f8ce4df	1.1007346
27	0x3fa3940b	1.2779554
28	0x3f21d5d5	0.63216907
29	0x3fbc171c	1.4694552
30	0x401b70a1	2.4287493
31	0x3fc2a320	1.5206032

V f4 [8, 7]
0	0x40548e41	3.3211825
1	0x3fac355e	1.3453786
2	0xc0330b83	-2.7975776
3	0xc0444600	-3.0667725
4	0x3fc2f6f2	1.5231612
5	0x40077476	2.1164832
6	0xc015d2ab	-2.3409832
7	0xbff8abb0	-1.9427395
8	0x3f23ad7a	0.6393658
9	0xbfd9b809	-1.7009288
10	0xbfd3189a	-1.6491883
11	0x3f287f02	0.658188
12	0x3f2d55ab	0.67708844
13	0x3fd2ad39	1.6459113
14	0x40d7784d	6.733435
15	0xbee93483	-0.45547876
16	0x3e95f0eb	0.29285368
17	0x3ebf1bbd	0.3732585
18	0x3e453cbe	0.19261453
19	0xbf43b7a0	-0.76452065
20	0xbea9c340	-0.33156776
21	0x4081251c	4.03578
22	0xbfc234ae	-1.5172327
23	0xbf3f66d1	-0.7476626
24	0xbe95e304	-0.29274762
25	0x3de437e2	0.11143471
26	0x3f6523fb	0.89508027
27	0x40e3bda8	7.1169014
28	0xc08742bc	-4.2268963
29	0xbf77e71d	-0.96837026
30	0x3e19f089	0.15033163
31	0x3ef56b6f	0.47933528
32	0x3f2f977b	0.68590516
33	0x3ef8464a	0.48491126
34	0xc0025a88	-2.0367756
35	0x3f1c0507	0.6094517
36	0x4003fbdf	2.062248
37	0x3e178427	0.14796506
38	0x3ed10372	0.4082294
39	0xbd8ee533	-0.0697731
40	0x3ed6b0ec	0.41931856
41	0xc0b6ae86	-5.708804
42	0xc07fde24	-3.9979334
43	0x3e6722c8	0.22571862
44	0xbfa3a879	-1.2785789
45	0xbf84626f	-1.034254
46	0x4032aea8	2.7919102
47	0xbf8bed6c	-1.093183
48	0xc0865b4e	-4.1986456
49	0xc04da2cd	-3.2130616
50	0x3f45d25e	0.7727412
51	0xbf26eb1e	-0.6520251
52	0xbf47c8a9	-0.7804056
53	0x3f78a926	0.971331
54	0xc0207c6e	-2.5075946
55	0x400f1b58	2.236044

out_bias f4 [7]
0	0xbf796a31	-0.9742766
1	0x3dc0fda7	0.0942338
2	0x3ebedb5f	0.37276742
3	0x3e34c8b5	0.17654689
4	0x3d341f48	0.043975145
5	0xbeacbb5a	-0.33736688
6	0xbfd612c6	-1.6724479
