hw1/py/net/reber_srn2_40.pth (torch, 2071 bytes, 6 tensors)

H0 f4 [2]
-0.9390726 0.99290293
00000000: 1067 70bf e32e 7e3f

W f4 [7, 2]
-1.0400972 -0.13942483 1.3771813 1.9470922 6.04412 -1.6182815 1.1464375 -0.063941285
-2.6457007 2.0827081 2.8097873 -0.7023034 -8.585375e-39 -1.2085661e-38
00000000: e821 85bf 62c5 0ebe 7a47 b03f 513a f93f
00000010: 6e69 c140 d923 cfbf 77be 923f a6f3 82bd
00000020: 2953 29c0 174b 0540 8ed3 3340 28ca 33bf
00000030: 887c 5d80 e899 8380

U f4 [2, 2]
1.3871663 1.7691313 -4.2023787 -0.008950398
00000000: aa8e b13f e572 e23f e379 86c0 b1a4 12bc

hid_bias f4 [2]
0.13340744 0.40930957
00000000: f69b 083e 0691 d13e

V f4 [2, 7]
1.0619668 -3.2807534 3.5004172 4.1593347 -2.5729878 -2.1326928 10.866535 -0.32471123
0.17787004 2.8392622 1.784066 -2.4506032 0.20754038 -9.707058
00000000: 87ee 873f ddf7 51c0 d606 6040 4519 8540
00000010: d5ab 24c0 0a7e 08c0 54dd 2d41 8d40 a6be
00000020: 9023 363e 79b6 3540 465c e43f afd6 1cc0
00000030: 7785 543e 1c50 1bc1

out_bias f4 [7]
-5.090655 0.3599509 -0.0010838753 0.14599986 -0.7163545 1.4320614 -5.116579
00000000: a5e6 a2c0 7c4b b83e d210 8eba fd80 153e
00000010: 0263 37bf ca4d b73f 04bb a3c0
