hw1/py/net/reber_srn2_10.pth (torch, 2071 bytes, 6 tensors)

H0 f4 [2]
-0.80994016 0.88582474
00000000: 3d58 4fbf 69c5 623f

W f4 [7, 2]
-1.9184626 -0.025964774 0.6433043 1.1372377 4.433116 -0.69251114 0.8665276 1.4756804
-1.7016106 1.530596 -0.12582622 -2.7208433 -8.585375e-39 -1.2085661e-38
00000000: 2f90 f5bf 14b4 d4bc 97af 243f 0191 913f
00000010: 16dc 8d40 6948 31bf c1d4 5d3f 18e3 bc3f
00000020: 60ce d9bf 92ea c33f 97d8 00be 4c22 2ec0
00000030: 887c 5d80 e899 8380

U f4 [2, 2]
1.026829 1.1068625 -2.931288 -0.43837607
00000000: 226f 833f acad 8d3f 399a 3bc0 d472 e0be

hid_bias f4 [2]
0.11186268 0.30856192
00000000: 4318 e53d d4fb 9d3e

V f4 [2, 7]
0.5269107 -2.2111552 2.144796 2.6055865 -1.9428903 -1.813756 3.9251044 -0.6158343
0.38355514 1.9518478 1.393068 -1.8077141 0.16383204 -4.484859
00000000: 9fe3 063f 9183 0dc0 5644 0940 eec1 2640
00000010: a1b0 f8bf 2829 e8bf e934 7b40 51a7 1dbf
00000020: 5761 c43e 26d6 f93f 0d50 b23f 2d63 e7bf
00000030: 96c3 273e f783 8fc0

out_bias f4 [7]
-3.973494 0.6129083 0.0030166255 -0.06998613 -0.47145832 0.95324486 -0.71060413
00000000: ba4d 7ec0 8fe7 1c3f 94b2 453b e354 8fbd
00000010: fc62 f1be db07 743f 27ea 35bf
