hw1/py/net/reber_lstm2_50.pth (torch, 2011 bytes, 5 tensors)

W f4 [7, 8]
0	0xbe3beb81	-0.18351556
1	0x40490ce1	3.141411
2	0xc023ce42	-2.559464
3	0xc08db475	-4.4282784
4	0xc03c3539	-2.9407485
5	0x40b0a1c4	5.519747
6	0xbfdaa9f5	-1.7083117
7	0x40c84323	6.2581954
8	0x3eaceaa9	0.33772781
9	0x40744132	3.8164792
10	0xbf051af1	-0.51994234
11	0xc093eef4	-4.622919
12	0xbe9d82e2	-0.30763918
13	0x3b954bc0	0.0045561492
14	0xbf7cb1c6	-0.9870876
15	0xbf92c749	-1.1467067
16	0x3f8256dc	1.0182757
17	0x3f811c36	1.0086734
18	0x40be6671	5.950005
19	0x3f8ff1c2	1.1245654
20	0x3f0ed87c	0.5579908
21	0xc0258c7a	-2.586699
22	0x41012508	8.071541
23	0x40924e50	4.5720596
24	0x409f6ff8	4.982418
25	0x401d3a45	2.4566815
26	0xbf878e20	-1.0590248
27	0x3e1b670b	0.15176027
28	0x40612f68	3.5185184
29	0xbeab8f54	-0.33507788
30	0xc0206b98	-2.506567
31	0x40ee0734	7.4383793
32	0x3ff382be	1.9024274
33	0xbdb4ea61	-0.08833767
34	0x40370e0e	2.8602328
35	0x3fa863a0	1.3155403
36	0x3e65a99f	0.22427987
37	0xc013c7d3	-2.3090713
38	0xc012fc77	-2.2966592
39	0x4046ef99	3.1083739
40	0x401bf008	2.4365253
41	0x3b7341e3	0.003711813
42	0xbfe44268	-1.7832766
43	0x3fe36b54	1.7767129
44	0x3faf603b	1.3701242
45	0xc0278e97	-2.618078
46	0x4098fc16	4.780772
47	0xc0c294f1	-6.0806813
48	0x40169605	2.3529065
49	0x3f9baa5f	1.2161368
50	0x406d564d	3.7083924
51	0xc05588fd	-3.336486
52	0x3daa6151	0.08319343
53	0x3f1a35c5	0.60238296
54	0xbf55cd42	-0.83516324
55	0x3f5cbe3c	0.86227775

U f4 [2, 8]
0	0x405cea8e	3.451816
1	0xc00be3f8	-2.185789
2	0x4060653a	3.5061784
3	0x3fc80349	1.5626003
4	0x40921abf	4.565765
5	0x4034e256	2.8263144
6	0xbfb70f1a	-1.4301484
7	0x40d5f4be	6.6861258
8	0x4028464d	2.6292908
9	0xbf67d31d	-0.9055651
10	0x40517994	3.2730455
11	0xbf060447	-0.52350277
12	0xbf0c32be	-0.54764926
13	0xbfda6a35	-1.7063662
14	0x4106aff4	8.417957
15	0x3f8b4327	1.0879868

hid_bias f4 [8]
0	0x3f8055e6	1.0026214
1	0x40112bd4	2.2683
2	0xbd808087	-0.06274515
3	0xbead6bc3	-0.33871278
4	0x3e4bf8b2	0.19919088
5	0xbf105ac7	-0.56388515
6	0x3ecd3cde	0.400855
7	0x4009fb5b	2.1559665

V f4 [2, 7]
0	0xc1bc3dd9	-23.5302
1	0xc07509a8	-3.8287144
2	0xc08c7cba	-4.3902254
3	0xc0b01b75	-5.5033517
4	0x4007162b	2.110728
5	0x3f549e52	0.8305408
6	0x415fb67a	13.98205
7	0x406b623e	3.6778712
8	0x40693667	3.6439455
9	0xc0dc7a77	-6.8899493
10	0xc0d463a8	-6.637165
11	0x40d12f42	6.537019
12	0x3cac2422	0.021013323
13	0xc136f199	-11.433984

out_bias f4 [7]
0	0xc0e4fb53	-7.155679
1	0x401ef099	2.483435
2	0xbfec94cb	-1.8482908
3	0xbff57931	-1.917761
4	0x3f3dbf2e	0.7411984
5	0x3ff05bdd	1.8778034
6	0xc12edc65	-10.928807
