hw1/py/net/reber_lstm2_30.pth (torch, 2011 bytes, 5 tensors)

W f4 [7, 8]
0.22782223 3.745741 -2.2613597 -4.30477 -2.7343304 5.4688573 -1.0318022 5.810564
0.2280296 4.2137375 -0.30945474 -3.9418542 -0.2808682 -0.09993731 -0.9309606 -0.91408753
0.8139649 1.2353355 5.651983 0.656235 0.40486223 -2.2656271 6.9065223 4.3272166
4.822195 2.2705302 -2.0507486 0.33268163 3.4004529 -0.25356388 -3.2442937 6.171518
2.3774376 -0.20797779 2.7699206 1.2531778 0.26556486 -1.7726206 -2.626015 3.2120595
1.3777412 -0.4250752 -0.49150047 2.6909413 0.3710424 -2.176094 3.9135187 -5.3961525
2.3474696 1.3068653 3.6170754 -3.6346955 0.2317983 0.3358625 -3.571523 0.7464209
00000000: 3b4a 693e 38ba 6f40 1eba 10c0 adc0 89c0
00000010: 45ff 2ec0 e100 af40 1812 84bf 24f0 b940
00000020: 9780 693e f0d6 8640 da70 9ebe 5747 7cc0
00000030: f5cd 8fbe efab ccbd 6f53 6ebf a401 6abf
00000040: 0160 503f 791f 9e3f 0bdd b440 04ff 273f
00000050: 1a4a cf3e 0900 11c0 3b02 dd40 8f78 8a40
00000060: 6c4f 9a40 5e50 1140 773f 03c0 3f55 aa3e
00000070: 05a1 5940 20d3 81be 82a2 4fc0 137d c540
00000080: f027 1840 21f8 54be 6146 3140 2168 a03f
00000090: 1ef8 873e 3be5 e2bf a110 28c0 6292 4d40
000000a0: d359 b03f 75a3 d9be f3a5 fbbe 6238 2c40
000000b0: 45f9 bd3e 2045 0bc0 1777 7a40 48ad acc0
000000c0: f13c 1640 5d47 a73f 2a7e 6740 da9e 68c0
000000d0: 895c 6d3e 2bf6 ab3e d593 64c0 7115 3f3f

U f4 [2, 8]
2.7653787 -1.7557008 3.2528367 1.5969661 3.6288297 2.486673 -1.0416148 5.906906
2.8286638 -1.0372896 3.6079915 -0.7074837 -0.3300522 -1.5804034 7.0281568 0.6027145
00000000: f7fb 3040 ceba e0bf 7a2e 5040 6369 cc3f
00000010: bf3e 6840 a725 1f40 a253 85bf 6005 bd40
00000020: d408 3540 e8c5 84bf 55e9 6640 a71d 35bf
00000030: 9afc a8be a94a cabf a9e6 e040 7f4b 1a3f

hid_bias f4 [8]
1.1923094 2.053681 0.022997845 -0.2911743 0.21897097 -0.46716768 0.9143017 2.1037424
00000000: 989d 983f 826f 0340 fa65 bc3c cc14 95be
00000010: ed39 603e 9a30 efbe ad0f 6a3f b7a3 0640

V f4 [2, 7]
-19.270079 -2.645105 -3.6245468 -4.725361 0.7535943 0.76358837 11.7916355 1.0227327
3.1980045 -5.392342 -5.3452682 5.2474914 0.24788001 -6.9585295
00000000: 1f29 9ac1 6649 29c0 93f8 67c0 2836 97c0
00000010: 8eeb 403f 877a 433f 8aaa 3c41 e8e8 823f
00000020: 1bac 4c40 118e acc0 700c abc0 73eb a740
00000030: 42d4 7d3e 46ac dec0

out_bias f4 [7]
-7.210932 1.9734948 -1.321912 -1.5546999 0.93694156 1.4695268 -7.533669
00000000: f4bf e6c0 7a9b fc3f 6a34 a9bf 6800 c7bf
00000010: 67db 6f3f 7419 bc3f d113 f1c0
