hw1/py/net/reber_lstm8_40.pth (torch, 3867 bytes, 5 tensors)

W f4 [7, 32]
0	0x40311a1d	2.7672188
1	0x3ea26644	0.31718647
2	0x3ff20e6f	1.8910655
3	0x3fd0c126	1.6308944
4	0xbe81687b	-0.25275025
5	0x40055794	2.0834703
6	0x3fd97628	1.6989183
7	0x4015dbb5	2.3415349
8	0xbf883c86	-1.064347
9	0x3e652bd5	0.22380002
10	0xbf6876a3	-0.90806025
11	0x3f65ed31	0.8981505
12	0xbedb016f	-0.4277453
13	0x3e5dc71a	0.21657982
14	0xbf730691	-0.94931895
15	0xbf5416da	-0.8284737
16	0x402dadd1	2.713734
17	0x3ed5936a	0.4171403
18	0x3f772826	0.96545637
19	0xbfa453be	-1.2838056
20	0x3dc89989	0.097949095
21	0x3fdbeb3b	1.7181162
22	0x400b9f54	2.1815996
23	0x401ef17d	2.4834893
24	0x3f5a8b05	0.85368377
25	0x3f076de6	0.52902067
26	0x3f292173	0.66066664
27	0x3fb228bd	1.3918682
28	0x3f7f0141	0.9961129
29	0x3ffd1ebc	1.9775004
30	0x4001f332	2.0304685
31	0x40115483	2.2707832
32	0x40095ff6	2.146482
33	0x3f4abae8	0.79191446
34	0x3e071eb1	0.13195302
35	0x3e122493	0.14271764
36	0x3ee9df72	0.45678288
37	0xbe0a6fd1	-0.13519217
38	0x3e101353	0.14069872
39	0xbf5a6860	-0.85315514
40	0xc00a885f	-2.1645734
41	0xbf50ec7b	-0.8161084
42	0x3e09208a	0.13391319
43	0x3de52614	0.111889035
44	0x3f4dd200	0.8039856
45	0x3f859dea	1.0438817
46	0x3ed448cb	0.41461787
47	0xbf40fbbf	-0.75384134
48	0xbe9d4a95	-0.30720964
49	0xbfb3648a	-1.4015057
50	0x3f336bd9	0.7008644
51	0xbea650e6	-0.32483596
52	0x3efca02c	0.4934095
53	0x3f175cb4	0.5912583
54	0xbfe62e46	-1.7982872
55	0xbeacb051	-0.3372827
56	0x3eb98dea	0.36241084
57	0x3d88d36b	0.0668095
58	0x3f507fe9	0.81445175
59	0xbf2fa2ba	-0.68607676
60	0xbfb0bbc2	-1.3807299
61	0x3e853218	0.2601478
62	0x3f13a4f4	0.57673573
63	0xbd679177	-0.05653521
64	0x3dc73f5a	0.0972888
65	0xbf3320ce	-0.6997193
66	0xbffe5577	-1.9869832
67	0xbd829e60	-0.06377864
68	0xbdb9ed03	-0.090784095
69	0xbef7db68	-0.4840958
70	0x3f4ca997	0.79946274
71	0xbea60fc7	-0.32433912
72	0x3fc270ba	1.5190651
73	0x3ee93098	0.45544887
74	0x3f5831e9	0.84451157
75	0xc023c08b	-2.558627
76	0x3f07adea	0.52999747
77	0x3f930118	1.1484709
78	0x3f5b0019	0.85547024
79	0x3fe99636	1.8248966
80	0xc019bcdf	-2.4021528
81	0xbf331243	-0.6994974
82	0x3d26b2b3	0.040697765
83	0x3fc8a768	1.5676088
84	0xbdb2fe37	-0.08739894
85	0xbfdb5e19	-1.7138091
86	0xbf10d2f2	-0.56571877
87	0x3e5582ed	0.20850725
88	0x3f15b835	0.584842
89	0x3f49a889	0.7877279
90	0xbfa4614f	-1.2842196
91	0xbe10eb5e	-0.14152285
92	0x3e8fdf96	0.2810027
93	0x3fc14377	1.5098714
94	0xbdd6f943	-0.10496762
95	0x3f12eedc	0.5739572
96	0x3e4e7ae4	0.20164067
97	0x3fb9b67b	1.4508814
98	0x3f96b263	1.1773189
99	0x3eb6a646	0.35673732
100	0xbe4d8e91	-0.20073916
101	0xbf568f13	-0.83812064
102	0x3ff407d1	1.9064885
103	0xbf865309	-1.049409
104	0xbf20b8af	-0.62781805
105	0x3f108259	0.56448895
106	0x3fd543af	1.666128
107	0x3f90a064	1.1298947
108	0x3e014a54	0.1262601
109	0xbf77de31	-0.9682341
110	0x3f3f69a9	0.747706
111	0xbf1f3089	-0.62183434
112	0xbf3a5641	-0.72787863
113	0x3f272be5	0.6530135
114	0xbd5fa0be	-0.054596655
115	0xbf007b90	-0.5018854
116	0xbeb2cea5	-0.34923282
117	0x3fd9d23f	1.7017287
118	0xc00f5279	-2.2394087
119	0xbf8b2754	-1.0871377
120	0x3f19f3b4	0.60137486
121	0x3e9032c1	0.28163722
122	0xbe89e73e	-0.26934236
123	0x3f308ebd	0.689678
124	0x3ef70b7a	0.48250943
125	0xbf469d2e	-0.7758359
126	0x3f641bdf	0.8910503
127	0xbe3bfff1	-0.18359353
128	0xc012352e	-2.2844958
129	0xbe573de4	-0.21019703
130	0x3f08914b	0.533467
131	0x3ed0cf79	0.4078329
132	0xbd2f80a1	-0.04284728
133	0x3e8bef5e	0.2733106
134	0x3e0574f8	0.13032901
135	0xbc10ac7c	-0.008830186
136	0x3ffdbe35	1.9823672
137	0x3fbcd4a9	1.4752399
138	0x3ef5d22a	0.48011905
139	0x3eb2eee9	0.349479
140	0x3e14a22d	0.1451499
141	0x3dcfea01	0.101520546
142	0xbf346ec2	-0.70481503
143	0xbf452f74	-0.7702553
144	0xc00ed258	-2.2315884
145	0x3fb1bb85	1.3885351
146	0xbf0e7b20	-0.55656624
147	0xbfbbab19	-1.466159
148	0xbeaa9bd8	-0.33322024
149	0x3f31e8da	0.6949593
150	0xbf641bff	-0.8910522
151	0xbf1e1e91	-0.6176539
152	0x3f3294dd	0.697584
153	0xbfbb4316	-1.4629848
154	0xbf547826	-0.8299583
155	0x3f863710	1.0485554
156	0x3ee87c5c	0.4540738
157	0x3e45475b	0.19265501
158	0x3e876793	0.26446208
159	0x3de49907	0.11162
160	0x3da8a9e2	0.082355276
161	0xbf3b3d0b	-0.7314002
162	0xbe3cb5ae	-0.1842868
163	0x3ea877ee	0.32904
164	0x3f882869	1.0637332
165	0x3f60adb7	0.8776507
166	0x3e720937	0.23636328
167	0x3f653fa6	0.89550245
168	0x3f829c7e	1.0204008
169	0xbf388770	-0.7208166
170	0x3d97ddc6	0.07415347
171	0xbf3bd98c	-0.73378825
172	0xbeb3a513	-0.3508688
173	0xbf18317f	-0.59450525
174	0xbf851cc1	-1.03994
175	0xbe440e52	-0.19146088
176	0x3f520945	0.82045394
177	0xc01e7b62	-2.4762807
178	0xbdc1e9c0	-0.094684124
179	0x3fff1106	1.992707
180	0x3e481da3	0.19542556
181	0xbfaee306	-1.3663032
182	0x3f053d49	0.5204664
183	0xbebcc5c5	-0.36869636
184	0x3e9b0cf0	0.30283308
185	0x3fc101dc	1.5078692
186	0x3fcecd68	1.6156435
187	0x3ed5197b	0.41621003
188	0x403ebf37	2.9804208
189	0x3d6b912e	0.0575115
190	0x3f086a2f	0.53287023
191	0xbde1e0e1	-0.1102922
192	0x3aff4663	0.0019475933
193	0x40167c61	2.3513415
194	0x3f59cebf	0.85081095
195	0x3ebb8b62	0.36629778
196	0x3fb45f6b	1.4091619
197	0x3fa81dc3	1.3134083
198	0xbe164824	-0.14675957
199	0x40468007	3.1015642
200	0xbe1f7dff	-0.15575407
201	0x3daca355	0.084295906
202	0x3f7de8ae	0.99183166
203	0xbf4c7911	-0.7987223
204	0xbf33a552	-0.70174134
205	0x400232f8	2.034361
206	0xbf93b239	-1.1538764
207	0xc010f3c3	-2.264878
208	0x3fbf57e5	1.4948698
209	0x3f5d27c5	0.8638881
210	0xbd1b35fa	-0.037893273
211	0xbfcaa581	-1.5831758
212	0xbfb42722	-1.4074442
213	0xc0022238	-2.0333385
214	0x40115146	2.2705855
215	0x3fe07384	1.7535253
216	0x3e12ced8	0.14336717
217	0x3ff4740d	1.9097916
218	0x3fd8292c	1.6887565
219	0x3e9972ce	0.29970402
220	0xbe2fcb99	-0.1716751
221	0xbfdf9e39	-1.7470161
222	0x3fc3e170	1.5303173
223	0x400da25d	2.2130349

U f4 [8, 32]
0	0xbf62942d	-0.8850735
1	0xbeb04350	-0.34426355
2	0x3f1b8466	0.607489
3	0xbf0e5cf1	-0.5561057
4	0x3edfb07f	0.43689343
5	0x3ff32eb8	1.8998632
6	0x40735eb1	3.8026545
7	0x3f200b47	0.6251721
8	0xbe8145ef	-0.25248668
9	0xbe1b189a	-0.15146104
10	0x3f8b26bf	1.0871199
11	0x3f13e72c	0.57774615
12	0xbea1c13d	-0.31592742
13	0x3f3c4ec6	0.735577
14	0xc04517d4	-3.0795794
15	0xbee042f8	-0.43801093
16	0xbecacea5	-0.39610782
17	0x3ea75622	0.32682902
18	0x3e8df439	0.2772539
19	0x3eca88c9	0.39557484
20	0x3deb0668	0.11475831
21	0xbe170d3a	-0.1475114
22	0xbdcd08dd	-0.10011456
23	0x3f0b5900	0.5443268
24	0x3e09afa9	0.13445915
25	0xbe030a94	-0.12797004
26	0xbebb153c	-0.36539638
27	0xbf5e60fe	-0.8686675
28	0x3f426712	0.7593852
29	0x4073ff0e	3.8124423
30	0x3f01e33c	0.5073736
31	0x3ef1113c	0.4708346
32	0x3fc6e2b6	1.5537937
33	0x3fa371cc	1.2769103
34	0x3e99fdb9	0.30076388
35	0x3f49d7cc	0.78844905
36	0x3f678f0f	0.90452665
37	0x403a72f8	2.9132671
38	0x3f840517	1.0314053
39	0x3f443070	0.7663641
40	0xc0264e07	-2.5985124
41	0x3ea83d2b	0.32859167
42	0x3f878223	1.058659
43	0x3efe0dcb	0.49619898
44	0x3ed07ade	0.4071874
45	0x3e766862	0.24063256
46	0xbf80462b	-1.0021414
47	0x3f00b2d0	0.50272846
48	0x400dd81f	2.216316
49	0x3ed3f722	0.41399485
50	0xbe3eaa19	-0.18619575
51	0x3eb355d8	0.3502643
52	0x3f3a2ea7	0.72727436
53	0x3d953d63	0.07287099
54	0xbd78fa96	-0.060785852
55	0xbeba825a	-0.36427575
56	0x3f0a12e1	0.53935057
57	0x3e82c0fd	0.25537863
58	0xbf4cc7e9	-0.7999254
59	0x3f1dcc2e	0.6163968
60	0xbf1b3303	-0.6062471
61	0x4000a81c	2.0102606
62	0x3fa9a1d7	1.3252515
63	0x3f2135eb	0.629729
64	0xc03e0e96	-2.9696403
65	0x3ea12949	0.3147681
66	0xbd67ce04	-0.056592956
67	0xbfb3ed63	-1.405682
68	0x3f827bb8	1.0194006
69	0xbda7f4f7	-0.0820102
70	0x3ac587b9	0.0015070356
71	0x3e1287e8	0.14309657
72	0x4032ea63	2.7955558
73	0xbfa7ec6e	-1.3119028
74	0xbf9ede9b	-1.2411684
75	0x3f1d053f	0.6133613
76	0xbfb39d25	-1.4032332
77	0x3c2ef4ca	0.010678479
78	0xbf186c0f	-0.59539884
79	0xbeb183fe	-0.34671015
80	0x3e8710b3	0.26379928
81	0xbdb8f49e	-0.09031032
82	0x3f31d891	0.6947108
83	0xbf3353c6	-0.70049703
84	0x3ed77f35	0.4208924
85	0x3ed40bac	0.41415155
86	0x3d4a39d4	0.049371555
87	0xbe6ac6fb	-0.22927468
88	0xbf90e2fb	-1.1319269
89	0xbeada071	-0.3391147
90	0xbecaae1f	-0.3958597
91	0xbfb03c21	-1.376835
92	0x3f80fe9b	1.00777
93	0xbf23294a	-0.6373488
94	0xbef6da8c	-0.48213613
95	0xbebaf575	-0.36515394
96	0x3eb7996c	0.3585924
97	0xc00ab835	-2.167493
98	0xbef7a4ec	-0.48368013
99	0xbf647d90	-0.89254093
100	0xbf96f298	-1.1792784
101	0xc03817c6	-2.876451
102	0xbfdcb6af	-1.7243251
103	0xbdc97a2a	-0.09837754
104	0xbdaada3a	-0.08342405
105	0xbecbfe55	-0.39842477
106	0xbfe47b13	-1.7850059
107	0xbc46a52a	-0.012124339
108	0xbe83fb17	-0.25777504
109	0xbde6ae47	-0.112637095
110	0x3e64b5a8	0.22334921
111	0xbe657dfc	-0.2241134
112	0xbfdb7eb5	-1.7148043
113	0xbe69be05	-0.22826393
114	0x3f716921	0.9430104
115	0xbf73391d	-0.9500902
116	0xbf101e3d	-0.5629614
117	0x3e8848ef	0.26618144
118	0x3e7dd961	0.24789955
119	0x3f34f478	0.7068553
120	0xbf823454	-1.0172219
121	0xc03dc97f	-2.9654233
122	0xbfd741af	-1.681692
123	0xbe130718	-0.14358175
124	0xbf1c0b92	-0.60955155
125	0xc004ae9c	-2.0731573
126	0xbf5329c2	-0.8248559
127	0xbea458c5	-0.32098976
128	0x401ddb57	2.4665124
129	0x3e336c0c	0.17521685
130	0xbdd93680	-0.10606098
131	0x3fc62643	1.5480427
132	0x3f358b41	0.7091561
133	0x3e18eae0	0.14933348
134	0x3f61dd65	0.88228446
135	0x3f5a4c77	0.85272926
136	0xbf733297	-0.9499907
137	0x3eadb4f1	0.3392711
138	0x3f84c537	1.0372685
139	0x3dd09723	0.10185077
140	0x3f562676	0.83652437
141	0x3f47452d	0.7783993
142	0x3f11a92e	0.5689877
143	0x3e05a636	0.13051686
144	0xbf974624	-1.181828
145	0x3f1fae7c	0.6237562
146	0xbfe2c3a0	-1.771595
147	0xbed984d6	-0.42484158
148	0x3f04e3bb	0.5190999
149	0xbded342e	-0.11582218
150	0xbf7e7ae4	-0.99406266
151	0xbe3af875	-0.18258841
152	0x3fe68842	1.8010333
153	0x3f2fda34	0.68692327
154	0xbe90c59b	-0.2827576
155	0x3fe9e355	1.8272501
156	0x3f137bb2	0.5761062
157	0x3e836264	0.25661004
158	0x3fb5c781	1.4201509
159	0x3fb3cf36	1.4047611
160	0xbf878d05	-1.0589911
161	0x3f45a620	0.7720661
162	0xbcfced84	-0.030874975
163	0xbe0d8145	-0.13818844
164	0x3ef48aaf	0.47762057
165	0xbf9dacfe	-1.2318418
166	0x3fcb1738	1.5866461
167	0x3eb4eeb5	0.3533837
168	0x4029e676	2.6546912
169	0xbe9b7e2c	-0.303697
170	0xbf20601e	-0.62646663
171	0x3f92cf47	1.1469506
172	0x3d8b67df	0.06806921
173	0xbf7a2ffb	-0.9772946
174	0xbef7e04b	-0.4841331
175	0xbf6d55b5	-0.92708904
176	0xbf81b35e	-1.0132864
177	0xbe92b9c3	-0.2865735
178	0xbf2c527f	-0.6731338
179	0xbeb9046d	-0.3613619
180	0x3e8b3d0b	0.2719501
181	0x3e29e48b	0.16591088
182	0x3e9c2110	0.30493975
183	0xbf8fc854	-1.123301
184	0x3eefbe62	0.46824938
185	0x3f8798b4	1.0593476
186	0x3f44663d	0.76718503
187	0xbd03c74a	-0.03217248
188	0x3f7ca25c	0.9868524
189	0x3ee61a60	0.44941998
190	0x3f15eb36	0.5856203
191	0x3e9d8596	0.3076598
192	0xc01a26bf	-2.4086149
193	0xbf2d8800	-0.67785645
194	0xbea38202	-0.31935126
195	0xbfe02100	-1.7510071
196	0xbfe96cce	-1.823633
197	0xbf22cd80	-0.6359482
198	0xbd324cc9	-0.04353026
199	0x3e255aea	0.16147962
200	0x3f08a383	0.533745
201	0xbf8c53f7	-1.0963124
202	0x3ed1150c	0.4083637
203	0xbcdfc736	-0.02731667
204	0xbe30ba6f	-0.17258619
205	0x3edcbc5f	0.43112466
206	0xbf17203b	-0.59033555
207	0x3e56bee0	0.2097125
208	0xc005b7a6	-2.089334
209	0xbf8e33b1	-1.1109525
210	0x40212784	2.5180368
211	0x3e25d3ea	0.1619412
212	0xbfa63591	-1.2985097
213	0xbe670af1	-0.22562768
214	0xbfbae986	-1.4602516
215	0xbe52f062	-0.20599511
216	0xbee71ede	-0.45140737
217	0xbf876bf8	-1.0579824
218	0xbe7e2052	-0.24817017
219	0xbfbab17a	-1.4585412
220	0x3f2550fc	0.645767
221	0xbe94a67e	-0.29033273
222	0xbf590c4a	-0.84784377
223	0xbe157a9b	-0.14597552
224	0xbf77e141	-0.96828085
225	0x3fe01866	1.7507446
226	0x3fd7005a	1.6796982
227	0x3e5e59ce	0.21713945
228	0xbe2a2d76	-0.16618904
229	0x40365e9b	2.8495243
230	0xc00b127e	-2.1730037
231	0x3e25bfc3	0.16186433
232	0xbeccefc2	-0.4002667
233	0x3d101a04	0.03518106
234	0x3f479c5c	0.7797296
235	0xbf83019f	-1.023487
236	0x3f35b959	0.70985943
237	0x3fd73842	1.6814044
238	0x3ebac743	0.3648015
239	0x3e184f5b	0.14874022
240	0xbf6974a6	-0.91193616
241	0xbb58a8ae	-0.0033059525
242	0x3ee4f588	0.44718575
243	0x3f936372	1.1514723
244	0xbdf1ed69	-0.118128605
245	0xbe9030a0	-0.28162098
246	0xbf2fcb37	-0.68669456
247	0x3eb4eedc	0.35338485
248	0x3d09c9ea	0.033639826
249	0x3f9fc72d	1.2482659
250	0x4055c73c	3.3402853
251	0xbd3425eb	-0.043981474
252	0xbeb63ba4	-0.35592377
253	0xc02872b2	-2.6320004
254	0x3f1a69db	0.6031777
255	0x3eb8d0eb	0.36096892

hid_bias f4 [32]
0	0x3fd38986	1.6526344
1	0x3dac0358	0.08399075
2	0x3f77e244	0.9682963
3	0x3fb9adf3	1.450621
4	0xbe3e9843	-0.1861277
5	0x3fad94b4	1.3561006
6	0x3fcb2a41	1.587227
7	0x3f4ce53c	0.80037284
8	0xb9d56472	-0.00040701363
9	0x3ecba43a	0.39773732
10	0x3f4067a3	0.7515814
11	0xbe8c636b	-0.274196
12	0x3ec6eb5d	0.38851443
13	0xbd92b084	-0.07162574
14	0xbf34703e	-0.7048377
15	0xbea9fd8b	-0.3320125
16	0xbeb8d649	-0.36100987
17	0xbdf0fa94	-0.11766544
18	0x3c652b6e	0.013987405
19	0xbef2f43e	-0.47451967
20	0x3dafba53	0.085804604
21	0x3dc610a7	0.09671145
22	0xbd91e10b	-0.07123002
23	0x3e95b27d	0.29237738
24	0x40349f04	2.8222055
25	0x3f9218dc	1.1413836
26	0x3f804b44	1.0022969
27	0x3fae707a	1.3628075
28	0x3f2ec498	0.6826873
29	0x3fac8e97	1.3481015
30	0x401ed67f	2.4818418
31	0x3fe3fafc	1.7810969

V f4 [8, 7]
0	0x4051716d	3.272548
1	0x3fca543c	1.5806956
2	0xc04b1eb5	-3.1737492
3	0xc057a024	-3.3691492
4	0x3fcafd9d	1.5858647
5	0x40106bb8	2.2565746
6	0xbf6655e2	-0.89974797
7	0xbf922e72	-1.1420424
8	0x3f3ac1dc	0.72952056
9	0xbfe19161	-1.7622491
10	0xbff74988	-1.9319315
11	0x3f291366	0.66045225
12	0x3f3fbbd4	0.7489598
13	0x4012b82b	2.2924907
14	0x40de37be	6.9443045
15	0xbf2ecc41	-0.68280417
16	0x3f18e559	0.59724957
17	0x3f2e177d	0.6800459
18	0x3ebca27d	0.3684272
19	0xbf688f3a	-0.90843546
20	0x3f17b275	0.5925668
21	0x404cdbfa	3.2009263
22	0xbfd35c6c	-1.651258
23	0xbf4fe130	-0.81202984
24	0xbe86ece3	-0.26352605
25	0x3e5b6d67	0.21428452
26	0x3f72cda7	0.9484505
27	0x410e66c9	8.900094
28	0xc08065b8	-4.012417
29	0xbfa1a742	-1.2629168
30	0x3e802e97	0.25035545
31	0x3f16ba69	0.5887819
32	0x3f3c9331	0.73662096
33	0x3f10cb77	0.5656046
34	0xc012b26e	-2.2921405
35	0x3f3b726a	0.73221457
36	0x401e871f	2.4769971
37	0x3d2aadee	0.04166978
38	0x3ea3871e	0.31939024
39	0xbeef1766	-0.4669754
40	0x3ee10d80	0.43955612
41	0xc0a62b0d	-5.192755
42	0xc0830e92	-4.0955286
43	0xbeca3000	-0.39489746
44	0xbfb02ae3	-1.3763088
45	0xbf8e8225	-1.1133467
46	0x405d2d4a	3.4558892
47	0xbf555363	-0.83330363
48	0xc0cc6a64	-6.387987
49	0xc059c4e6	-3.4026427
50	0x3f9413e1	1.1568567
51	0xbf3c9483	-0.7366411
52	0xbf764528	-0.96199274
53	0x3f89d4f2	1.0768111
54	0xc042cf16	-3.0438895
55	0xbdc4c893	-0.09608569

out_bias f4 [7]
0	0xbfa56fce	-1.2924745
1	0x3e4b4a6a	0.19852605
2	0x3eae1fda	0.34008676
3	0x3e8cd82e	0.27508682
4	0x3d727372	0.05919213
5	0xbf0921b2	-0.5356704
6	0xc0001ca1	-2.0017474
