hw1/py/net/reber_lstm6_0.pth (torch, 3163 bytes, 5 tensors)

W f4 [7, 24]
000000 4a eb 1e be 39 26 ac 3e ee 3b b7 be 51 5d 96 be
       -0.15519443 0.33622912 -0.3578791 -0.2936807
000010 5a 77 6e bd ae fe 5d bd a2 17 c4 be ca 3d 0c be
       -0.05821929 -0.05419796 -0.3829928 -0.13695446
000020 8c 0b 12 3e d4 4b 9c be 27 26 c1 be 26 05 c5 be
       0.14262217 -0.30526602 -0.3772442 -0.3848049
000030 40 1b ca bb 7f 0f 09 3e 1b 1b 60 3d 65 87 38 3d
       -0.0061677992 0.13384818 0.05471335 0.045050997
000040 a8 1d 82 3e 72 99 c6 3e 17 c1 e9 3d fc 30 d3 bd
       0.2541325 0.38788944 0.11413782 -0.103120774
000050 52 b6 2f be 7b a3 3f 3e 68 93 bc 3e 62 2f 86 3e
       -0.17159393 0.18714707 0.36831212 0.26208025
000060 e6 c0 48 3e 5d 0b ce 3e f9 30 e6 3c 97 77 b6 3e
       0.19604835 0.40243044 0.028099524 0.35638115
000070 57 f7 b2 3e 5b 82 9f bd 65 18 c5 bd c1 1d 68 bc
       0.3495433 -0.07788535 -0.096237935 -0.01416725
000080 72 89 48 3e c8 8a ec 3c 6b e9 27 3e 58 56 54 be
       0.19583681 0.02887477 0.16397636 -0.20736063
000090 a9 6b 15 3e ca 3a 98 3e 2c 73 45 be 81 89 eb bd
       0.1459185 0.29732352 -0.19282216 -0.11500836
0000a0 cd a7 b9 be e3 df bc 3b 73 af b6 be ba 7d c5 bd
       -0.36260834 0.005763994 -0.35680732 -0.09643121
0000b0 9c 4a b8 be dd 76 5b 3e b1 74 67 3e 08 0d 8d bd
       -0.35994422 0.21432061 0.22603108 -0.06887251
0000c0 b1 11 89 be a6 56 25 3e 93 15 66 3e 5b 27 83 be
       -0.2677131 0.16146335 0.22469167 -0.25615963
0000d0 91 01 4e 3e b2 ac 46 3e 23 9f 18 be 9f cd 36 3e
       0.20117785 0.19401816 -0.14904456 0.17851876
0000e0 8f 7b 5b be 48 98 f4 3d 67 df c4 be 6c d2 a3 3e
       -0.21433853 0.11943108 -0.38451692 0.31996477
0000f0 02 d9 99 3e 9d e7 35 3e a8 81 04 bc 89 61 2e 3e
       0.30048376 0.17764135 -0.008087553 0.17029394
000100 8b d5 10 3e 39 10 bb 3e 2d 14 af 3e 30 74 ce be
       0.1414396 0.36535814 0.3419508 -0.4032302
000110 d4 65 31 be 35 f8 cf be bf 50 26 3e a3 44 94 3d
       -0.17324 -0.40619054 0.1624174 0.07239654
000120 5e 4a bb be f7 2c fa 3d 94 df ac bd 92 19 e4 bd
       -0.36580175 0.122156076 -0.08441082 -0.1113769
000130 cf 8a 30 bd 04 8c 43 be 2e f0 41 bd 8e 10 93 be
       -0.04310113 -0.1909638 -0.047348194 -0.28723568
000140 72 82 c5 bd b0 db 4e 3e 4a bf 8f 3d c9 00 c7 3e
       -0.09644021 0.20200992 0.07018907 0.38867787
000150 14 cc 36 bd b9 7d 8e 3e a6 47 28 3d ed 0c 99 be
       -0.044628218 0.27830294 0.041083954 -0.29892674
000160 b4 ab c0 3e 26 24 b1 3e b1 5e 91 3e c1 83 81 3e
       0.37631 0.34597892 0.28392556 0.25295833
000170 24 78 9d be ad 99 f6 3c d7 31 98 be 7b 41 88 be
       -0.30755723 0.030102575 -0.29725525 -0.26612458
000180 f4 a0 35 3e c2 87 8d 3e eb 0c 3c 3e 43 f9 c3 be
       0.1773718 0.27642637 0.18364303 -0.3827611
000190 d6 06 83 3e 65 73 18 3e d4 25 3f 3e ec 43 4d 3e
       0.25591153 0.1488777 0.18666774 0.20045441
0001a0 6e 83 8b 3d 99 ca 32 3e 72 84 2e 3d ba 54 13 be
       0.068121776 0.17460097 0.04260678 -0.1438779
0001b0 40 84 74 be 14 8c bf 3e a2 9c b7 be 08 6c c5 be
       -0.23878574 0.3741156 -0.3586169 -0.38558984
0001c0 06 2d 92 be cd c1 15 bc ab 43 a3 be a8 d6 94 3e
       -0.28549975 -0.009140444 -0.31887564 0.2907002
0001d0 0e 22 3c 3e 94 57 8b bd 8d 0e 6b 3e 4d 83 48 3d
       0.18372366 -0.068038136 0.2295477 0.048953343
0001e0 70 77 3e 3e 5a bc f9 ba 5a d7 9c be 54 1d b1 3e
       0.1860025 -0.0019053326 -0.3063305 0.34592688
0001f0 ae 50 96 be 39 d9 2a 3e 46 6c 16 be c3 80 81 be
       -0.2935843 0.16684426 -0.1468974 -0.2529355
000200 bd 9f f7 3d ef 25 c1 be c2 8b 8d be 48 54 42 3e
       0.120910145 -0.37724254 -0.2764569 0.18977463
000210 02 94 d8 3d 1c ae 92 3e a0 df 91 be 35 03 af be
       0.10575105 0.2864846 -0.28490925 -0.34182134
000220 58 d4 b7 3b 26 63 86 be a8 b4 68 be b8 5e 55 be
       0.00561003 -0.2624752 -0.22725165 -0.20836914
000230 f0 ce be be dc 9e 7b 3e ce 21 b4 be 18 1a 90 3e
       -0.37267256 0.24572319 -0.3518204 0.28144908
000240 f1 1f c4 be e4 a3 be 3e 1c 23 14 3e c4 c2 9b 3e
       -0.3830562 0.37234414 0.14466518 0.30422032
000250 19 17 93 be 0a 6d 36 be fd 86 92 3d ad a9 ac be
       -0.2872856 -0.17815033 0.07154653 -0.33723202
000260 cb 06 c3 3e 9d f8 5a 3e 54 0c 8e bc 4c 13 16 3e
       0.3809112 0.21383901 -0.017339863 0.14655799
000270 8e 50 aa 3e 83 38 8e be fa cf db 3c c4 be b5 3e
       0.33264583 -0.2777749 0.02683257 0.35497105
000280 c7 aa 0d 3e 6d 8e 2f 3e ac f3 79 be 43 2b 9a be
       0.13834678 0.17144175 -0.2440936 -0.3011113
000290 4b 67 cd be 97 88 60 be 95 d5 9e bd bd a2 37 3e
       -0.4011787 -0.21927105 -0.07755581 0.17933173

U f4 [6, 24]
000000 b4 a8 86 bd 97 74 91 3e 0e 01 98 3e dc ab d3 bd
       -0.06575146 0.28409263 0.29688305 -0.10335514
000010 78 80 a7 bd 4e 06 c3 be 4d 51 0e be ff 26 c9 be
       -0.081788 -0.38090748 -0.13898201 -0.39287564
000020 82 20 90 3e d5 b8 9a be 85 dd ca 3d 7d bb c6 be
       0.28149801 -0.3021914 0.09905533 -0.38814917
000030 83 6c 79 3e e6 d7 8a 3e 98 f3 af 3c 69 15 df 3d
       0.243578 0.27117842 0.02147846 0.108927555
000040 62 94 ce 3e d5 9c a3 be 66 75 ee bd 1d 06 8f be
       0.40347582 -0.3195559 -0.11643486 -0.27934352
000050 08 18 b3 3e 40 71 1a 3e 35 81 1a be 9d b3 1e 3e
       0.34979272 0.15082264 -0.15088351 0.15498205
000060 29 4c 12 3e 5b de 6a 3e b5 50 81 3e da 7a 53 3c
       0.14286865 0.22936384 0.25256887 0.012907708
000070 db 3e 08 3e 76 b6 de bd b5 60 d9 bd 56 90 a0 be
       0.13305227 -0.108746454 -0.106141485 -0.3136012
000080 3a 3e ee bc 90 12 5c bd b8 90 25 be 39 c7 99 3e
       -0.029082406 -0.05372864 -0.16168487 0.30034807
000090 cd 5e 0a bd 5c cc a0 3d b0 cd 79 3d 3c 26 60 3e
       -0.033781815 0.078514785 0.060987175 0.21889585
0000a0 29 08 7b be e4 7e 69 3e d5 73 1a bd 94 13 98 3d
       -0.24514832 0.22802311 -0.037708122 0.07425609
0000b0 c5 94 aa 3e 63 1d d1 bb 3d 67 5d 3e 43 70 8e 3d
       0.33316627 -0.006381677 0.21621414 0.06955006
0000c0 f2 59 41 bd de 36 ab 3e de 0e dc 3d 6e 76 90 be
       -0.04720492 0.33440298 0.10745023 -0.28215355
0000d0 f0 4e c0 be 86 ba bb bd 89 24 c9 be 8a 4d ca 3e
       -0.37560225 -0.09166436 -0.39285687 0.39512283
0000e0 6e fd 2e be 11 7e a8 be b3 f9 9d 3e a2 0f 63 be
       -0.17088863 -0.3290868 0.30854568 -0.22173932
0000f0 76 49 54 bd e5 fb d4 bd 0a 99 aa 3e 48 72 22 3e
       -0.05182787 -0.103996076 0.33319885 0.15863907
000100 3a d1 77 bd 48 c6 fa 3d 06 10 b6 3e de 8a 96 3e
       -0.06050227 0.122448504 0.355591 0.29402822
000110 2a 33 86 3d db 54 ca be cb c6 b3 be cd df 35 bd
       0.065527275 -0.39517865 -0.35112604 -0.044402886
000120 e9 b0 66 3e 15 7a 8b 3e 73 af 66 be d5 56 72 bd
       0.22528423 0.2724158 -0.22527866 -0.05916484
000130 4c 6f c5 3e d7 d0 86 3e e8 f5 98 3e 71 39 bc 3c
       0.38561475 0.26331207 0.29875112 0.022976609
000140 ca 68 63 3e 80 af b0 3e 93 fc 7e 3e 21 fd fb bd
       0.22207943 0.34508896 0.24901037 -0.1230414
000150 2d 47 28 be 31 91 70 3e f2 c4 87 3e 45 20 79 bd
       -0.16433401 0.23492886 0.26517445 -0.06082179
000160 c1 31 af bd ed b9 74 be 2e 32 a7 3d 7e 3a 72 3e
       -0.08554412 -0.2389905 0.08163868 0.23655125
000170 fc b8 b6 3e f1 b9 17 3e af e5 1e be fb e5 ad be
       0.35688007 0.14817025 -0.15517305 -0.33964524
000180 a4 f3 b6 3d 7f c2 0c be ef a2 07 bd 47 c9 8d 3e
       0.089331895 -0.1374607 -0.03311437 0.27692625
000190 89 a8 8a 3e 7c dd 83 3d ad 0a d5 bc 1f 7a c8 bd
       0.27081707 0.06438729 -0.026006067 -0.09788918
0001a0 5b 32 3c 3c ad 58 8a 3e f3 65 cb 3e d0 47 31 be
       0.011486615 0.2702078 0.3972622 -0.1731255
0001b0 3c 5f 89 3e ec 91 96 be 54 6e b6 3e e0 31 46 be
       0.2683047 -0.29408205 0.3563105 -0.19354963
0001c0 ab 1e a6 be 82 6b c3 3e 5c a6 77 3e af da 28 be
       -0.32445273 0.3816796 0.24184555 -0.16489671
0001d0 98 1c b7 be 7d ac 88 3e cd 40 96 3e b2 d5 c7 bc
       -0.35764003 0.26694098 0.29346314 -0.02439389
0001e0 0b 66 f1 bd ba d0 ff bd c7 bd 6e 3e 56 bc 30 be
       -0.11787041 -0.12490983 0.23314582 -0.17259344
0001f0 ad 20 87 be 2e 70 12 3e 88 30 c5 be ec b2 56 be
       -0.26392117 0.14300606 -0.3851359 -0.20966691
000200 da 37 a4 be 11 11 ab 3e 97 35 a9 3e e0 a9 74 bd
       -0.3207386 0.33411458 0.33048698 -0.059732318
000210 5c 18 41 3e 69 ee a2 3e f8 95 9d 3e 02 48 aa 3e
       0.18856949 0.31822518 0.3077848 0.33258063
000220 06 4c 05 be 58 82 7a be ab 40 53 3e f5 08 0f 3e
       -0.13017282 -0.24463785 0.20630138 0.1396826
000230 d2 e4 47 3e 1b da a2 be 08 7b 01 3e 7f a2 a6 3c
       0.19520882 -0.31807026 0.12644589 0.020341156

hid_bias f4 [24]
000000 e4 59 a2 3e 82 8d d6 3c a5 c4 8f be 65 23 3d be
       0.31709206 0.026190523 -0.28079715 -0.18470533
000010 02 47 8c be 5f f7 f8 bd 55 a8 69 3e b0 f9 4f 3d
       -0.27397925 -0.12156557 0.2281812 0.05077523
000020 3b c5 8e be d1 d8 96 3d 1d 89 1b 3e ae de 92 3e
       -0.2788485 0.07365573 0.15189023 0.28685516
000030 81 92 3a be b7 cd 69 be 5b c1 1a 3e 5d 1d 14 3d
       -0.1821995 -0.2283238 0.15112822 0.036160816
000040 94 d2 cd 3e f7 68 e1 bc 2a 5c 6d be b4 38 8c 3e
       0.4019972 -0.027515871 -0.23179689 0.2738701
000050 02 e8 bb be 16 5f aa 3e c2 21 82 be 40 4e 8e be
       -0.36700445 0.3327567 -0.2541638 -0.27794075

V f4 [6, 7]
000000 46 50 97 be 19 3b 1c 3e 7d 58 33 bd be 9e 83 3e
       -0.2955343 0.15256919 -0.04378556 0.25707048
000010 f3 4c 25 3e d5 f6 26 be 67 c2 27 3e 89 91 56 3e
       0.16142635 -0.16305096 0.16382752 0.20953955
000020 3a cc b0 3e 2a df b2 3e 83 17 1b 3d af d5 1a 3e
       0.34530813 0.34935886 0.03786422 0.15120576
000030 81 2f 65 3e ca 81 ac 3c 3e eb b1 3e 29 1b a6 be
       0.22381403 0.021057982 0.34749788 -0.32442597
000040 6b cf 84 3d 1a 4d 83 3e ce 78 e2 bd 2a 9b 8d 3e
       0.06484874 0.2564476 -0.11058198 0.27657443
000050 66 41 b2 be 54 81 59 3e 93 81 5d 3d 21 4d 55 3e
       -0.3481552 0.21240741 0.05407865 0.20830204
000060 36 a2 81 3e e6 88 c5 be 43 7b 09 3e 9b 18 2b 3e
       0.2531907 -0.38581008 0.13425927 0.16708605
000070 46 6c cf 3e a7 ff 11 3e a6 bd 9d 3d 49 34 bb be
       0.40512294 0.1425768 0.07702188 -0.36563328
000080 95 db aa ba 53 3c 5a 3d 3a e0 b8 3e 77 47 94 ba
       -0.0013035411 0.053280186 0.3610857 -0.0011312802
000090 07 3a 21 3e 63 34 33 3e 97 82 9d 3d c5 94 77 3e
       0.15744792 0.17500453 0.07690924 0.24177845
0000a0 e9 3b 17 3c d2 0b c0 be
       0.009230592 -0.37509018

out_bias f4 [7]
000000 02 48 fc bd 1d 77 be be ed 74 9a be ba d4 a2 3d
       -0.12318422 -0.3720025 -0.30167332 0.079507306
000010 4e d0 4c 3c 08 42 5c be 32 56 f6 bd
       0.012500836 -0.21509564 -0.12028159
