hw1/py/net/reber_lstm7_0.pth (torch, 3611 bytes, 5 tensors)

W f4 [7, 28]
00000000: 91de 9e3e d19d 043e 212f fdbc 8f14 933c
00000010: a43a ab3e 0450 89bd cea8 343d 52af 58be
00000020: 87a2 8b3d 72cb 8e3e 5136 a2bc 1d5d a7be
00000030: 9acc 94be d9e4 7bbe 235d 9b3e b938 853e
00000040: d240 bd3d 7696 16be 6a27 a13d ad69 aa3e
00000050: a18c 5e3e 977e 783e edb9 cf3d 0edc fd3d
00000060: 14be febd c94d 0abe 03a5 be3e 5a9c 123e
00000070: 9fb1 603d fb5f a53e 89d3 a6be 620d 43be
00000080: 0c1b 01be 8271 113d b535 d0bd 30ff 13bc
00000090: acea 3abe 52e6 a5be 5e4d 1cbd 8dcb bf3d
000000a0: c4ab b6be 94ed bdbe 02a9 aebd 6c96 9abe
000000b0: b3f6 7f3e 9272 0dbe fa52 bcbc db59 9c3e
000000c0: d73d 943e 610d 2b3d 817f ae3e e6e5 a83d
000000d0: 0ec8 463e 74a0 983e aeec 6fbe 98da e5bd
000000e0: be19 94be dfce 443e d13d 69be 982a 713e
000000f0: e6fd 8c3e 33b5 333e 24cb 603e dca9 553e
00000100: 1365 3abe 489c 86bd 0e19 74be c02f 26be
00000110: 20f3 9bbe 1d36 323b f046 9b3e 4a9b bebc
00000120: a0e5 6dbe 7180 a5be c1ea 1f3e feb0 833e
00000130: de30 7fbc 9a2f 823d 9584 aebe 18a9 d1bd
00000140: 1b94 a1be 24a5 91be c0c0 263e b02b 35be
00000150: a80c 883e 4f38 4f3d 249e 933e b506 52be
00000160: 6d6f 4f3e b9fb 2abe 2fa3 a63e 9e19 7bbe
00000170: fa35 fa3c 8fba b03e 3e3b 5bbe 044b 463e
00000180: 9972 843e f7ce 6a3e 5d50 0e3e e711 09be
00000190: 3130 9fbe 85b9 823e 3701 7ebd d6ab 153e
000001a0: 59d8 a7be 7d12 0d3e ef96 b83e 2395 f7bd
000001b0: 681a f0bd 5643 5dbd 3e2e b1be c015 bebc
000001c0: 4d1d c3bc 0565 833e 20a9 bfbe 884c c73d
000001d0: 21ef be3e 3b4a a6bd 1ad6 b8bc da65 70be
000001e0: 8c7a ae3d 4acf a7be 4757 2e3e 5fc4 1a3e
000001f0: 557f f83c 5812 aabe 4430 c13c 43d5 953e
00000200: 5a4b 15be 960d 8fbe 0c17 a6be 5f44 893e
00000210: 2aff 7f3e aebc 93be c3a3 e83d 6917 9f3e
00000220: c1bf 29bd 9627 853d 2dfb e73d 15d7 e03b
00000230: ebd0 633e bace 073e 728d 0f3e c53f 1e3e
00000240: 4fc2 253d 4182 6cbe 99c3 bb3e 8d46 bebe
00000250: 2e4b da3c ef46 b13e 5d99 21be d7e2 97be
00000260: 0973 af3e b7d4 b43d b94e bf3e 25ea 55bd
00000270: faad 903d 628d 81be d9cb 963e 7ed3 abbe
00000280: 47f5 49be 19cc f23d 5343 3bbe c8cd 9fbe
00000290: 1acb 513e 9abe 5ebe 9ab3 1d3d 461c 20bd
000002a0: e66a 463e b112 acbc 8e3b 74bd 3cd4 6bbe
000002b0: 6f81 aebe 6ca5 713e 0847 3abe 298a 16be
000002c0: f621 423e 0531 a9be acad 8abe 7e9a 263e
000002d0: f8e7 43bd c565 783e c605 7b3e f2c1 f33d
000002e0: 69df a93e 83cf ba3e 4fb0 01be ca73 babc
000002f0: c185 56bd eb96 493d 457f 433e 7898 d03d
00000300: 1ed1 19bd 6be0 a6bd 345e 08be f98a 95be
0.3102918 0.12950827 -0.030906262 0.017954139 0.33443177 -0.06704715 0.044106297 -0.2116063
0.06818109 0.2788959 -0.01980129 -0.32688227 -0.2906235 -0.24599017 0.30344495 0.26019838
0.09240879 -0.14705834 0.07868846 0.3328375 0.21733333 0.2426704 0.101428844 0.12395488
-0.12438598 -0.13506235 0.3723527 0.14317456 0.054856893 0.3229979 -0.32583264 -0.19048074
-0.12607974 0.03550864 -0.10166494 -0.009033009 -0.18253583 -0.32402283 -0.03815972 0.09364996
-0.35677922 -0.3709532 -0.085283294 -0.30192888 0.24996452 -0.13813236 -0.022988785 0.30537304
0.2895343 0.041760806 0.34081653 0.08246975 0.19412252 0.29809916 -0.2343013 -0.11223334
-0.2892589 0.1921954 -0.22777487 0.23551404 0.2753746 0.17549591 0.21952492 0.20865577
-0.18202619 -0.06572777 -0.23837683 -0.16229153 -0.30458927 0.0027192899 0.3032756 -0.023267407
-0.23232126 -0.32324556 0.15616895 0.25720972 -0.015575616 0.063567355 -0.34085527 -0.1023733
-0.31558308 -0.28446305 0.16284466 -0.17692447 0.26572156 0.05059081 0.2883159 -0.20510371
0.2025735 -0.16697587 0.32546374 -0.24521491 0.030543316 0.34517333 -0.21409318 0.19364554
0.2586868 0.22930513 0.13897844 -0.13385735 -0.31091455 0.25532165 -0.062012877 0.14616331
-0.32782248 0.13776584 0.36052653 -0.120889924 -0.117237866 -0.054019295 -0.34605592 -0.02320373
-0.023817683 0.2566301 -0.3743372 0.09731394 0.37291816 -0.08119627 -0.02256303 -0.23476353
0.08519468 -0.32775337 0.17025481 0.15113972 0.030334154 -0.3321712 0.023582585 0.29264268
-0.14579526 -0.27940053 -0.32439458 0.26809976 0.24999681 -0.2885489 0.1135936 0.31072548
-0.041442636 0.06501691 0.11327205 0.0068615773 0.22247665 0.13262454 0.14018801 0.15454014
0.04046851 -0.23096563 0.36672667 -0.371632 0.026647177 0.3462443 -0.1578116 -0.29665253
0.34267452 0.08829635 0.37364748 -0.05222525 0.070644334 -0.2530318 0.29452398 -0.33559793
-0.19722472 0.11855335 -0.18287401 -0.31211686 0.20487633 -0.21752396 0.03850136 -0.039089464
0.19376716 -0.021005007 -0.05962711 -0.2303018 -0.34083125 0.2359826 -0.18191159 -0.14701141
0.18958268 -0.3304521 -0.27085626 0.16269872 -0.047828645 0.24257572 0.24513921 0.119022265
0.3317826 0.36486444 -0.12664913 -0.02276029 -0.05237365 0.049216192 0.19091518 0.10185331
-0.037552945 -0.08148273 -0.13317186 -0.2920759

U f4 [7, 28]
00000000: 8c52 543e 29cc 68be 7c51 a83e e4b6 a53e
00000010: da7d 1cbe fd47 a2be 9066 203d a58e b5be
00000020: 8bb3 e23c 0ff5 8bbe 429b 4abd 2954 03bd
00000030: 23cd aa3e 902a 0b3d 72ee 45be c57b 973d
00000040: 6b03 923e c5fb b33e 3210 01bd 93c2 80be
00000050: c08f e03c 23e3 b43e dcff 77be cd90 ae3d
00000060: 4784 babe a80b 9cbe 0871 153e 15e0 a5bd
00000070: 2508 8abc ab65 89be 72f4 d0bd 67b0 1bbe
00000080: 5cf3 bc3e 634f 413e 9170 0fbe 2e8f 743d
00000090: 5207 113c f9cf 9dbe 96fc 30be 798f 9bbe
000000a0: 4051 fcbc 7634 3f3e 942f adbe dec4 333e
000000b0: 2be3 9f3e 5696 ae3e 5117 c03e d1af 053e
000000c0: c29d 7f3e b7fa 73be 6531 633e cf14 c43c
000000d0: 556d 9a3e 8c52 5bbe 396e 983e 3d81 b4be
000000e0: 526a 2bbe eef9 aa3c 7fde 87be 04bd cb3b
000000f0: 340b 603e 7e11 8b3b de86 7bbe 8a6e 3c3e
00000100: 3f42 66be dbaf bcbe e7da 45be 4f7a 923e
00000110: 61d2 5b3e bc5a 7f3d caae 5a3e 9354 bb3e
00000120: 6312 843e 9933 793d a107 aabe c684 103e
00000130: 1b27 c3bd 7d06 efbd a66a 503e 6133 893e
00000140: 383a 57bd f482 49be 2197 a3be 6200 ee3d
00000150: 8300 8fbe 4e18 163e b83a aabe 66d6 ac3e
00000160: 5445 5f3e 40b9 b2bd f6d6 a13e cd0e e5bd
00000170: a85f 62be 77df ce3d c2af 30be d408 8a3e
00000180: 9823 bcbe 42c5 4ebd 6c4e 90be cfc7 ab3d
00000190: 13a0 9f3e e663 1dbe 1547 32be 8120 253e
000001a0: 4e81 773e f3c0 81be 1ce3 443e 045c 66be
000001b0: 922f bebe 034c ddbd 4e39 533e 7e06 36be
000001c0: b247 90bc 37c0 74be d3b6 aebe 4e7f 81be
000001d0: 4629 273e 6df4 9ebe c6c1 923e f665 453e
000001e0: dbff 4c3e 5372 6ebe e06c 6fbd f8f3 793e
000001f0: b808 4abe d3a7 453e 9a2b 10be c334 da3c
00000200: 77ad acbd f442 2abe 4a9b 2c3e 4085 69bd
00000210: 9128 283e ccf3 d83d ffa9 ba3e 72a0 703e
00000220: ea31 3b3e 5a56 3dbd d64c 89be 162c 0ebe
00000230: d481 94bd 4a15 893e ba26 2d3e 63db 3ebe
00000240: ba0e b3be 2777 7bbd fb62 e7bd 6028 e03d
00000250: d387 ba3d a40d b93e 5dbf e3bd 0a2f 913e
00000260: fa5d 363d 99db 8fbd 5ed8 84bd 4125 b43e
00000270: 12d6 b4be 3ed0 7c3e 5ba5 583e 6fbe 453e
00000280: b1e8 9d3e f8d0 ba3e 867d 8dbe 1a7b 8ebe
00000290: a7e1 96be 5bf8 f43c 1f2d 833e b7d2 083e
000002a0: d1d4 c03e 405e a53d c7d0 863e b911 64be
000002b0: 8a66 803e 1647 0f3e 07db 5ebe 9806 84be
000002c0: 00ba 25be 60ab 24be 0d7e 023d 241f 1c3e
000002d0: da43 95be 0b45 283d 6b71 8cbc 7197 b2be
000002e0: fe4b e03d 2cd9 b73c 7e3f 1abd 139a 103e
000002f0: 0510 95be 8dd6 61be c42c b4be 7cef 963e
00000300: c0af a3be 08c7 60be 2bc8 afbe 951d 35be
0.20734614 -0.22734131 0.32874668 0.32366097 -0.15282384 -0.31695548 0.03916031 -0.35460392
0.027673503 -0.27335402 -0.04946447 -0.032062683 0.33359632 0.033976138 -0.19329241 0.07396654
0.28518233 0.35153022 -0.031509586 -0.25148448 0.027412295 0.35329542 -0.24218696 0.08523712
-0.36429045 -0.30477643 0.14593899 -0.08099381 -0.016849587 -0.2683538 -0.10202874 -0.15204011
0.36904418 0.1887794 -0.14007784 0.05970686 0.008851843 -0.30822733 -0.17283854 -0.30382898
-0.030800462 0.18672356 -0.33825362 0.17555568 0.31228003 0.34099072 0.3751779 0.1305535
0.24962524 -0.23826109 0.22186811 0.023935704 0.3016154 -0.21418208 0.29771593 -0.3525485
-0.16739777 0.020871129 -0.2653694 0.006217601 0.21879274 0.0042440286 -0.24563166 0.18401542
-0.22486208 -0.36852917 -0.19321786 0.2860894 0.21466972 0.06234239 0.21355739 0.36587963
0.25795278 0.060840223 -0.33208945 0.14113149 -0.09528943 -0.116711594 0.20353183 0.26797011
-0.052545756 -0.19678861 -0.3195124 0.11621167 -0.27930078 0.14657709 -0.33247924 0.33757323
0.2180379 -0.0872674 0.31609315 -0.11184464 -0.22106802 0.10101216 -0.17254546 0.2695986
-0.36745906 -0.05048109 -0.2818483 0.0838772 0.31176814 -0.1537014 -0.17409928 0.1612568
0.2417042 -0.2534252 0.1922726 -0.22496039 -0.37145668 -0.10805514 0.20627329 -0.17775914
-0.017612312 -0.23901449 -0.3412386 -0.25292438 0.16324338 -0.31045857 0.28663462 0.19277176
0.20019476 -0.23285799 -0.05845344 0.24409473 -0.19729888 0.19302301 -0.14079133 0.026636487
-0.08431523 -0.16627103 0.16856113 -0.057011843 0.16421725 0.105933756 0.36457822 0.23498705
0.1828076 -0.04622493 -0.26816434 -0.13884005 -0.07251325 0.26774055 0.16909304 -0.18638377
-0.34972173 -0.06139293 -0.11298176 0.10945201 0.09107938 0.3614322 -0.11120484 0.283562
0.044523217 -0.07024307 -0.06486581 0.35184672 -0.35319573 0.24688813 0.21156828 0.19310926
0.30841592 0.36487556 -0.2763483 -0.27828294 -0.29469034 0.029903581 0.25620362 0.13361631
0.37662366 0.080746174 0.2633116 -0.22272386 0.2507823 0.13991961 -0.2176324 -0.2578628
-0.16184235 -0.16081 0.031858493 0.15246254 -0.2915333 0.04108147 -0.017143926 -0.34881166
0.10951994 0.022442423 -0.037658207 0.14121275 -0.29113784 -0.22054501 -0.35190403 0.29479587
-0.31970024 -0.21950924 -0.34332404 -0.17687066

hid_bias f4 [28]
00000000: 3d14 79be c2d3 8fbe a413 b0bd 90ea 25be
00000010: b144 b83e 2bb5 2b3d 4ac9 a7be 8c0d 61be
00000020: 6109 9e3e 9eb7 593e afbd 44bd c9f1 86be
00000030: 4388 433d 5d73 b9bd 1e93 24be 23a6 9fbe
00000040: 9290 61bc a7eb d1bd 46d9 9b3c abfc 5c3e
00000050: 8110 5b3e 1f8e f03a 3e16 823c 7a71 4f3e
00000060: 120d 953e 9855 fb3c 9f9a 633e 9e66 613d
-0.24324127 -0.28091246 -0.08597496 -0.1620276 0.35989907 0.041920822 -0.3277076 -0.21977824
0.3086653 0.2126145 -0.04803246 -0.26356342 0.04773737 -0.09055207 -0.16071746 -0.3118144
-0.013767378 -0.10250025 0.019024502 0.2158076 0.21393014 0.0018352902 0.015879747 0.20258132
0.29111534 0.030680463 0.22226952 0.055029504

V f4 [7, 7]
00000000: 0009 0ebe 1d4a 1fbd 1b05 df3c 6e17 c93b
00000010: d73c 82bd 33da ae3e 8147 a03e 4a20 783c
00000020: 2bda b13e f3da 6f3e 9a67 833d 8451 b7be
00000030: 3711 76be d93a d03c bf3a 4bbe 9d74 863e
00000040: 9126 93be 4bc8 21be 65ea 84be a698 e8bc
00000050: fab7 283e 1854 b23b d308 a73e 831e 203e
00000060: 5be5 933e 0dc5 fc3d 8afb c53d 8359 13bd
00000070: f2e3 b13e 8a99 d83c 1ec2 b8be 7d8e 423e
00000080: d17f 883e c393 a43e 8c7c 11be 1151 b5be
00000090: af47 013e 53e9 6ebd b309 aabe d016 a9be
000000a0: 53f5 b23e ed58 5bbe 01cb 37be ca84 c1bd
000000b0: b703 813e 5d85 133d 194e 2abe 7240 85bd
000000c0: 9a85 0a3b
-0.1387062 -0.03888904 0.027224114 0.0061368262 -0.063592605 0.34150848 0.31304553 0.015144417
0.3473676 0.23423366 0.06416245 -0.3580438 -0.24030004 0.025418686 -0.19846629 0.26260844
-0.2874036 -0.15799062 -0.2596008 -0.028393101 0.16476431 0.0054421537 0.3262392 0.1563664
0.28885922 0.12342272 0.09667118 -0.035974037 0.3474422 0.0264404 -0.360856 0.18999667
0.26660016 0.32143983 -0.14207667 -0.3541341 0.12625001 -0.058327984 -0.33210525 -0.33025217
0.34952793 -0.21420641 -0.17948534 -0.09449156 0.25198147 0.036015857 -0.16631354 -0.065064326
0.0021136762

out_bias f4 [7]
00000000: 2b84 16bd ee27 94bd bdb2 023e b17f c1be
00000010: 4753 88bc 6437 29be 27a4 42be
-0.03674714 -0.072341785 0.12763496 -0.37792733 -0.016641272 -0.16525036 -0.19007932
