hw1/py/net/reber_lstm7_30.pth (torch, 3611 bytes, 5 tensors)

W f4 [7, 28]
0	0x40048f9d	2.0712655
1	0x3f484710	0.7823343
2	0x3fc5afa3	1.5444225
3	0x3f28ebb0	0.6598463
4	0x3fc92d04	1.5716863
5	0x3e6f5f4e	0.233762
6	0x3e5edffd	0.21765132
7	0x3e16d510	0.14729714
8	0xbe2813de	-0.16413829
9	0x3ff9dd41	1.9520646
10	0x3e37f97d	0.17966266
11	0xbefa62cc	-0.489035
12	0x400f1982	2.2359319
13	0xbed00a95	-0.40633073
14	0xbf5c0391	-0.8594294
15	0x3ee76490	0.4519391
16	0x40215b3e	2.521194
17	0x3ffb227b	1.9619898
18	0x3fc090c6	1.5044181
19	0x3f0af7ed	0.54284555
20	0xbf646287	-0.8921284
21	0xbe23dfb7	-0.16003309
22	0x3fa06b10	1.2532673
23	0x40091d31	2.1424067
24	0x3fe58217	1.7930325
25	0x3fffdab6	1.998862
26	0x3fb33b6d	1.400251
27	0xbeca2d83	-0.39487848
28	0x3fbbefda	1.4682572
29	0x3f0721d8	0.52786016
30	0x3fba03c7	1.4532403
31	0xbd646647	-0.0557616
32	0x3f56ce53	0.83908576
33	0xbf910c23	-1.1331829
34	0x3f14bd76	0.58101594
35	0x4038e38d	2.8888886
36	0xbe0c778f	-0.13717483
37	0xc085b268	-4.178028
38	0xbe866a78	-0.26253104
39	0xbf301eab	-0.68796796
40	0x3e6a50d3	0.22882394
41	0xbec018e8	-0.37519002
42	0xbf82f51e	-1.0231054
43	0x3d96d742	0.07365276
44	0xbf128729	-0.5723749
45	0xbeaa2d69	-0.3323777
46	0xbeaed87a	-0.34149534
47	0xbdc08a29	-0.09401352
48	0x3fd8d999	1.6941406
49	0x3fcebda1	1.615162
50	0x3cd146ce	0.025546458
51	0x3e80263e	0.25029176
52	0x3da082fb	0.078374825
53	0x3fc022ea	1.5010655
54	0xbfc05489	-1.5025798
55	0x3f0108e7	0.5040421
56	0xbf96ce24	-1.1781659
57	0x3d3b53e2	0.045734294
58	0xbec34261	-0.3813658
59	0x3f537c1d	0.82611257
60	0x3e9ff463	0.3124114
61	0x3fbf5857	1.4948834
62	0x4019a585	2.4007275
63	0x402b4a91	2.6764262
64	0xbe1ae4ac	-0.15126294
65	0x3e22a54a	0.15883365
66	0xbf49792f	-0.78700536
67	0x3fc40fe4	1.531735
68	0xbf9115f8	-1.1334829
69	0x3f6a9b78	0.91643476
70	0xbeb97e7b	-0.3622931
71	0x3ea58162	0.32325274
72	0xbf283733	-0.6570923
73	0xbf857eb5	-1.0429293
74	0xbfcb22e1	-1.5870019
75	0xc018a6f8	-2.385191
76	0x402e0280	2.7189026
77	0x3e67b3ec	0.22627228
78	0xbf05378a	-0.5203787
79	0x3f290744	0.6602671
80	0x3f27d79f	0.65563387
81	0x3fbab39c	1.4586062
82	0xbee5ab8e	-0.44857448
83	0x3fac2cea	1.3451207
84	0x404ab596	3.1673331
85	0x3e29c3bf	0.16578577
86	0x400fb8b4	2.2456484
87	0x3fea84b0	1.8321743
88	0x3f4d54fd	0.80207807
89	0x3f0245eb	0.50887936
90	0x3f840398	1.0313597
91	0xbf38335c	-0.7195337
92	0xbe77933b	-0.24177258
93	0xbfa0dd3b	-1.2567514
94	0xbfa470be	-1.2846906
95	0x3f1b73dd	0.6072367
96	0xbeff3d5b	-0.49851498
97	0x3ff98354	1.9493203
98	0x3fcccd04	1.6000066
99	0xbe32c7ca	-0.17459026
100	0xbf4f10a1	-0.8088475
101	0x3ec61ef9	0.38695505
102	0xbf4488a3	-0.7677099
103	0x40214dcd	2.5203736
104	0x3fe20819	1.7658721
105	0x3ecff2fb	0.40615067
106	0xbc1b580d	-0.009481442
107	0x3f92bdc3	1.1464161
108	0x3f03540f	0.5130014
109	0x3fc10cea	1.5082066
110	0xbf7e1713	-0.9925396
111	0x3f964c7f	1.1742095
112	0x4007d663	2.1224601
113	0xbea8ca06	-0.32966632
114	0xbf6c9218	-0.9241042
115	0x3fb3bdcb	1.4042295
116	0x3f395190	0.7239008
117	0x3f803b0f	1.0018023
118	0x3f6b9f94	0.9204037
119	0xc004e723	-2.0766075
120	0xbdb50595	-0.08838955
121	0xba77dd7d	-0.00094553066
122	0xbff22566	-1.8917663
123	0x3f8420bc	1.032249
124	0x3fda0468	1.7032595
125	0xbfc16462	-1.5108759
126	0x3fa2e7af	1.2726954
127	0xbe1cf4fc	-0.15327829
128	0x39b52f27	0.00034558141
129	0x3ecf0169	0.40430763
130	0xbd2d757b	-0.042348366
131	0x3f1577c5	0.5838588
132	0x3fd96191	1.69829
133	0xbe3d56ef	-0.18490194
134	0xbf02b899	-0.51062924
135	0xbefe1360	-0.49624157
136	0x3f888cb8	1.0667944
137	0x3ff1dd0a	1.8895581
138	0x4038d204	2.8878183
139	0x3fb1d31d	1.3892552
140	0x3e1483be	0.1450338
141	0x3fb8340e	1.4390886
142	0x3bd9909c	0.0066395532
143	0x3f85043d	1.0391918
144	0xbf0c9401	-0.54913336
145	0x3f24a403	0.6431276
146	0x3f110c01	0.5665894
147	0x3f2a8445	0.6660808
148	0xbe591841	-0.21200658
149	0xbd9cf3ea	-0.076637104
150	0x3fc3559b	1.52605
151	0xbea92ef1	-0.33043626
152	0xbe9ca268	-0.30592656
153	0xbfd8b737	-1.6930913
154	0x3ef85776	0.48504227
155	0x3e923db8	0.28562713
156	0x3fec1ee8	1.8446932
157	0xc0435d13	-3.0525558
158	0x3f384241	0.71976095
159	0xbf0e4259	-0.5556999
160	0xbf68a0b6	-0.90870225
161	0x3f045439	0.51691014
162	0x40238392	2.5549054
163	0x3ec8c5f1	0.39213517
164	0x3f2ed975	0.68300563
165	0xbf1fada6	-0.6237434
166	0x3f749002	0.9553224
167	0x3d6d055c	0.05786644
168	0xbf593eaf	-0.8486127
169	0xbf5f9157	-0.87331146
170	0x4004dc04	2.0759287
171	0x4014ae98	2.3231564
172	0xbda92aa9	-0.0826009
173	0x3eeabd5c	0.45847595
174	0xbe792b32	-0.24332884
175	0xbf172f87	-0.59056896
176	0x3ffe1192	1.9849112
177	0xc0119d74	-2.2752352
178	0xc02a960d	-2.6654084
179	0xbe1fcb27	-0.1560484
180	0x40033464	2.0500727
181	0xbea5a673	-0.32353553
182	0xbdb44633	-0.08802452
183	0x3e9ac456	0.30227917
184	0x4096a109	4.7071576
185	0x3fbcd336	1.4751956
186	0xbea544db	-0.32279095
187	0xbfd7d9ce	-1.6863344
188	0xc015168b	-2.329501
189	0xbd967711	-0.07346929
190	0x3fe8b01f	1.8178748
191	0x3e702765	0.23452528
192	0x3f96b1eb	1.1773046
193	0xc0588be5	-3.3835385
194	0xbfa2190a	-1.2663891
195	0x404418c4	3.0640116

U f4 [7, 28]
0	0x3ff22bcc	1.8919616
1	0xbf244ca1	-0.64179426
2	0x3f62a112	0.88527024
3	0x3fe0df60	1.7568169
4	0xbecf3f38	-0.4047792
5	0x3fbc8824	1.4729047
6	0x400d7ff2	2.2109342
7	0xbd861cb1	-0.06548441
8	0xbedfdb73	-0.43722114
9	0xc018718c	-2.3819304
10	0xbe84ea76	-0.2596013
11	0x3f18574a	0.5950819
12	0x3edf4d35	0.43613592
13	0xbfd71ffa	-1.6806633
14	0x3f014ff0	0.505126
15	0x3efda546	0.49540156
16	0x3f821b4a	1.0164578
17	0x3e970e2f	0.2950301
18	0xbe69328c	-0.22773188
19	0xbecdb078	-0.40173697
20	0x3d8b9ea5	0.068173684
21	0xbf91534b	-1.1353544
22	0xbf4f55ad	-0.80990106
23	0x3f414215	0.7549146
24	0x3ef4ba64	0.47798455
25	0xbf960731	-1.1720945
26	0x403e58bc	2.974166
27	0x3fcbb68a	1.5915082
28	0xbf0a0b0b	-0.539231
29	0xbf97ec0f	-1.1868914
30	0xbff20a68	-1.8909426
31	0xbfe9b36c	-1.825788
32	0xbf17b902	-0.59266675
33	0xbfd84ff8	-1.6899405
34	0xbfe94217	-1.8223294
35	0x3e9cb16c	0.30604112
36	0x3e8a6084	0.2702676
37	0x3f75cb14	0.96013
38	0x3ee42d0c	0.44565618
39	0x3f3eb583	0.74495715
40	0x3eb651a4	0.35609162
41	0x3f58f874	0.8475411
42	0xbff8a78e	-1.9426134
43	0x3ee2a3dd	0.44265643
44	0x3f1c0b41	0.6095467
45	0xbb450cb3	-0.0030067384
46	0x3fb6a686	1.4269569
47	0x3f393043	0.72339267
48	0xbf227706	-0.63462865
49	0xbeb2ed06	-0.3494646
50	0xbf177be6	-0.5917343
51	0xc0429244	-3.0401773
52	0xbfd8520f	-1.6900042
53	0xbf8573ef	-1.0426005
54	0xbf88c462	-1.0684931
55	0xbfdc9b5d	-1.7234913
56	0x3f9994d3	1.1998543
57	0x3f7e7fe5	0.994139
58	0x3f8d5272	1.1040785
59	0x3f424a97	0.75895065
60	0x3f7b9f39	0.9828983
61	0x3f51a0a8	0.81885767
62	0x40551ae4	3.3297663
63	0xbe95317d	-0.2913932
64	0xbeae54c1	-0.34049037
65	0xbd602b56	-0.05472883
66	0xbe825328	-0.25454068
67	0xbd09b7f9	-0.033622716
68	0x3f76da1b	0.9642655
69	0xc08648bc	-4.1963787
70	0x3e9be113	0.30445156
71	0x3d78e7f7	0.060768094
72	0xbea1aa41	-0.31575206
73	0x3e6e84a4	0.23292786
74	0xbf3f4415	-0.7471326
75	0x3e11ae3d	0.14226623
76	0x3e676199	0.22595824
77	0xbe02b096	-0.12762675
78	0x3e9401c6	0.28907603
79	0x3f396b91	0.7242976
80	0x3f5cf38f	0.8630914
81	0xbe8a751b	-0.2704247
82	0x3f8d84f3	1.1056198
83	0x40069cb1	2.1033137
84	0x3fade2a9	1.3584796
85	0xbf72a113	-0.9477703
86	0xbfc262ce	-1.5186403
87	0x3f55b658	0.8348136
88	0xbf3b2707	-0.73106426
89	0xbe9c3d76	-0.3051564
90	0x3f9ebd87	1.2401589
91	0xbeb97b17	-0.36226723
92	0xbf322471	-0.69586855
93	0xbdc473d8	-0.09592408
94	0xbf7b7dc7	-0.98238796
95	0x3f84e5ce	1.0382631
96	0x3ee24082	0.4418984
97	0xbf46ec2d	-0.77704126
98	0xbfb25788	-1.3932962
99	0x3f369281	0.713173
100	0x4038f777	2.890104
101	0xbfb2181c	-1.3913608
102	0x3fccce52	1.6000464
103	0x3ef0a561	0.47001174
104	0xbf0744b8	-0.5283923
105	0x3fc0e785	1.5070654
106	0xbf9784d2	-1.1837409
107	0xc01b04bb	-2.4221637
108	0xbe1e6f1a	-0.1547207
109	0xbd9622eb	-0.07330879
110	0x3ff7d94a	1.9363186
111	0xbf109fb4	-0.5649369
112	0x3f609a4a	0.87735426
113	0x3ec0397d	0.3754386
114	0xbeb6f8de	-0.35736746
115	0xbfc0282b	-1.5012258
116	0x3f7e340c	0.9929817
117	0xbf9b857e	-1.2150114
118	0x3f70e257	0.9409537
119	0xbf26da01	-0.651764
120	0x3f214bae	0.63006103
121	0x3e91e40f	0.28494307
122	0x3fb2164d	1.3913056
123	0xbec6791a	-0.38764268
124	0xbd1369ff	-0.035989758
125	0x3ea49f09	0.32152584
126	0xbf454471	-0.7705756
127	0xbe513f13	-0.20434217
128	0x3cbaaf85	0.022788772
129	0xbf09d10d	-0.5383461
130	0xbbb23b0f	-0.0054391692
131	0xbe032cc7	-0.1281005
132	0x3f299129	0.6623712
133	0x3f741e5c	0.95358825
134	0x3e45d6e4	0.19320256
135	0xbfa5e5b2	-1.2960722
136	0xbf9908bf	-1.1955794
137	0x3f94f0f4	1.1636033
138	0xbf847f40	-1.0351334
139	0x3b8a94dd	0.0042291717
140	0x3fcbab28	1.5911608
141	0x3fb14bd9	1.3851272
142	0x40195c52	2.3962598
143	0xbe3bafb5	-0.18328746
144	0x3eb1602c	0.34643686
145	0x3fc60f89	1.5473491
146	0x3fc65e0a	1.5497448
147	0x3f4c80fc	0.79884315
148	0x3feba04b	1.8408293
149	0xbff56515	-1.9171473
150	0x3f102c0b	0.56317204
151	0xbf8a7256	-1.0816143
152	0x3d849313	0.06473365
153	0xbf908905	-1.1291815
154	0x3f2eb7b3	0.6824905
155	0xbf47b9b0	-0.7801771
156	0x3fb2657f	1.3937224
157	0x3f488bfc	0.783386
158	0x3ed90751	0.42388394
159	0x3ed6e950	0.41974878
160	0xbce396e2	-0.027781907
161	0x40835248	4.103794
162	0x3f12602b	0.5717799
163	0xbe542b23	-0.2071958
164	0xbeaf8a95	-0.34285417
165	0x3f85b119	1.0444671
166	0x3f865734	1.0495362
167	0x3f326da8	0.6969857
168	0x3f374f2c	0.7160518
169	0x3fb353b7	1.4009923
170	0x3eeb8510	0.45999956
171	0xbe532f3a	-0.20623484
172	0xbddb08df	-0.106950514
173	0x3f7d64cb	0.9898192
174	0x3eb9e8eb	0.36310515
175	0x3f067dbf	0.52535623
176	0x3fa8c230	1.3184261
177	0x3dccc966	0.09999351
178	0xbef6a849	-0.48175266
179	0xbf6ec6fb	-0.9327237
180	0x3ca1018d	0.01965406
181	0x3e80d52b	0.25162634
182	0x3f7a7102	0.97828686
183	0xbfe85db5	-1.8153597
184	0x3f82c3cd	1.0216004
185	0x3f121224	0.5705893
186	0xbe88b956	-0.267039
187	0x3f42f4b1	0.7615462
188	0xbf87afee	-1.0600564
189	0x3f8e8ae9	1.1136142
190	0x3f76e1e8	0.96438456
191	0x40310723	2.7660606
192	0x3f31053a	0.691486
193	0xbf8b18da	-1.0866959
194	0x3ef76670	0.4832034
195	0x3dc21a76	0.09477703

hid_bias f4 [28]
0	0x3f88d273	1.0689224
1	0x3e47ac7d	0.19499393
2	0x3fe87043	1.815926
3	0x3fb95d72	1.4481642
4	0x400757ae	2.1147265
5	0x3f35e06f	0.71045583
6	0x3f5a5ea3	0.85300654
7	0x3ebfa200	0.37428284
8	0x3e7ce66a	0.24697271
9	0xbeb919ce	-0.361525
10	0xbf4d1eaa	-0.80124915
11	0xbe18fbd5	-0.14939816
12	0xbce095de	-0.027415212
13	0x3e1ba51b	0.15199701
14	0xbe9b7f77	-0.30370685
15	0xbe967f6b	-0.29394087
16	0x3e204db6	0.15654644
17	0x3e3a8700	0.18215561
18	0x3edb8ffe	0.42883295
19	0xbd7c64d9	-0.061619613
20	0x3e933dca	0.2875808
21	0x3f762325	0.96147376
22	0x3f7078ca	0.9393431
23	0x3fc2212e	1.5166376
24	0x402f7ed3	2.7421157
25	0x3fd78cb5	1.6839815
26	0x3f259bd2	0.6469089
27	0x3fa877b3	1.3161529

V f4 [7, 7]
0	0xbfcc8e8b	-1.5981001
1	0xbeb21e6e	-0.3478884
2	0xbf8ac216	-1.084048
3	0xbf8c65f2	-1.0968611
4	0xbc6e56f8	-0.014547102
5	0x40189d4a	2.3846002
6	0xbe52e31d	-0.2059445
7	0x40de7589	6.9518476
8	0x3e381258	0.17975748
9	0x3e28cd12	0.16484478
10	0xbe44f67d	-0.19234653
11	0xbf7c267e	-0.98496234
12	0xbef233b8	-0.47305083
13	0x4047c921	3.121651
14	0xc08e60d0	-4.449318
15	0x3fcb76d7	1.5895642
16	0xc06c2ac3	-3.69011
17	0xc05e4a3b	-3.4732807
18	0x3f895b6d	1.0731026
19	0x3f391810	0.7230234
20	0x40061df2	2.0955777
21	0xc0814c98	-4.0406
22	0x401d931b	2.4621036
23	0x3f52bb69	0.82317215
24	0x3e88fa38	0.26753402
25	0x3f19114b	0.5979201
26	0xbf84f93b	-1.0388559
27	0xc0e2e32e	-7.090232
28	0x40b3f8d1	5.624123
29	0x3f9d6dde	1.2299154
30	0xbfd68eae	-1.6762292
31	0xbfc1a593	-1.5128654
32	0x40325ad6	2.7867942
33	0xbf75c1e7	-0.95998996
34	0xc015d086	-2.3408523
35	0x3f696840	0.911747
36	0x3fb5f9d9	1.4216872
37	0xbf508b17	-0.81462234
38	0xbf9d90e8	-1.2309847
39	0xbf04d227	-0.5188317
40	0x4005bf28	2.0897923
41	0xc0f67695	-7.7019753
42	0x40877778	4.2333336
43	0x3f6ed392	0.9329158
44	0x3f326087	0.6967854
45	0x3f87d113	1.0610679
46	0xc07314e7	-3.7981508
47	0xbeb517d0	-0.3536973
48	0x4049af81	3.151337

out_bias f4 [7]
0	0xbfbb868c	-1.4650435
1	0x3ed1a3e6	0.40945357
2	0xbe540456	-0.20704779
3	0xbeccd5e0	-0.40006924
4	0x3ebc1b98	0.36739802
5	0xbef9c6cb	-0.4878448
6	0xc0306aa5	-2.756509
