hw1/py/net/reber_lstm2_20.pth (torch, 2011 bytes, 5 tensors)

W f4 [7, 8]
0	0x3e759ac6	0.23984823
1	0x4077fd3a	3.8748307
2	0xc019267a	-2.3929734
3	0xc090a127	-4.519672
4	0xc048d7fa	-3.1381822
5	0x40a8797d	5.26483
6	0xbf37f86c	-0.71863437
7	0x40a9e4fc	5.309202
8	0x3d4cff5e	0.050048225
9	0x408eeccb	4.4664054
10	0xbe316b15	-0.17326005
11	0xc052b79b	-3.2924564
12	0xbe838f9f	-0.25695512
13	0xbe11c55b	-0.14235441
14	0xbf7275c9	-0.94710976
15	0xbf3a9a15	-0.7289136
16	0x3f53efa3	0.8278753
17	0x3fdcdcdc	1.7254901
18	0x40ac34b3	5.381433
19	0x3ed230eb	0.41052946
20	0x3e9933a6	0.29922217
21	0xc001c778	-2.0277996
22	0x40b0ac1d	5.52101
23	0x4089a775	4.3016915
24	0x409cabee	4.8959875
25	0x3fed5b7e	1.8543546
26	0xc027b9a1	-2.620705
27	0x3ee19e5e	0.44066137
28	0x405e48af	3.4731863
29	0xbe52efa0	-0.20599222
30	0xc0411389	-3.0168173
31	0x40958c6b	4.673391
32	0x402b72b3	2.6788757
33	0xbe84e0b8	-0.25952697
34	0x403b93ea	2.930903
35	0x3f9d31a1	1.228077
36	0x3e6191be	0.22028252
37	0xbfbb7d0c	-1.4647536
38	0xc0330530	-2.7971916
39	0x403926d3	2.8929946
40	0x3f73b5da	0.9519936
41	0xbf461b68	-0.7738557
42	0xbe1634a3	-0.14668517
43	0x403393c4	2.805894
44	0x3e3c6890	0.18399262
45	0xbfdd7a3d	-1.7302929
46	0x4035b7cb	2.8393428
47	0xc0a099e2	-5.0187845
48	0x4024abc9	2.572985
49	0x400154fd	2.0208123
50	0x407b162f	3.923229
51	0xc08ab788	-4.3349037
52	0x3f0817a0	0.5316105
53	0x3f5a133d	0.85185605
54	0xc08c37bd	-4.381804
55	0x3fa40192	1.2812979

U f4 [2, 8]
0	0x40322e19	2.7840636
1	0xbfce5f05	-1.6122748
2	0x40424d06	3.0359511
3	0x3fc8ed58	1.5697432
4	0x4049fb32	3.1559567
5	0x400e97c3	2.2280128
6	0xbf47d338	-0.7805667
7	0x40a2c377	5.0863605
8	0x403a7934	2.9136477
9	0xbf85ce55	-1.0453593
10	0x406ea217	3.7286432
11	0xbf516004	-0.81787133
12	0xbe54de36	-0.20787892
13	0xbfbe8746	-1.4885032
14	0x40c7e563	6.2467513
15	0x3f1aff25	0.6054557

hid_bias f4 [8]
0	0x3f910640	1.1330032
1	0x3ff745e5	1.9318205
2	0x3db734e1	0.08945633
3	0xbe8bb719	-0.2728813
4	0x3e3dbd86	0.18529329
5	0xbecdddc4	-0.40208256
6	0x3f964bcf	1.1741885
7	0x4010e19f	2.2637708

V f4 [2, 7]
0	0xc170a70f	-15.040786
1	0xc0134908	-2.3013325
2	0xc0468737	-3.1020029
3	0xc074fa36	-3.8277717
4	0xbbaeef9d	-0.0053386227
5	0x3f3292b2	0.6975509
6	0x4116e506	9.430914
7	0xbf1d5e24	-0.6147177
8	0x4035f2f3	2.8429534
9	0xc08774c4	-4.2330036
10	0xc08efe27	-4.4685245
11	0x408db97d	4.4288926
12	0x3eca3bb3	0.39498672
13	0xc086d8b0	-4.213951

out_bias f4 [7]
0	0xc0ac0eb5	-5.3767953
1	0x3fd5581d	1.6667515
2	0xbf7035a8	-0.9383187
3	0xbfa592ff	-1.2935485
4	0x3f611cc3	0.8793451
5	0x3f9b1dfc	1.2118526
6	0xc098b54c	-4.772131
