hw1/py/net/reber_lstm6_20.pth (torch, 3163 bytes, 5 tensors)

W f4 [7, 24]
000000 40 93 b0 3f 81 c3 8c be 60 c7 6d 3e 92 ba a9 3d
       1.3794937 -0.27492908 0.23220587 0.082875386
000010 42 08 4f 3f 25 74 47 40 c5 c9 ce bf b5 19 fd 3d
       0.80871975 3.116464 -1.6155325 0.12358419
000020 a5 a8 aa bd f5 fb 9e 3f d8 a8 56 bd 15 b7 5d c0
       -0.08332948 1.2420641 -0.052407116 -3.4642994
000030 8f 88 9a be 2d 1d e1 bc 19 e3 9d 3e bc cf ce be
       -0.3018231 -0.027479732 0.30837324 -0.40392864
000040 fe 80 6e 3f ec 47 43 40 03 24 2d 3f 01 57 b1 bf
       0.93165576 3.0512648 0.67633075 -1.3854676
000050 5f 5a 31 3f 77 70 4a 3f 1e 17 c4 3f c2 c8 24 40
       0.6927852 0.7907786 1.5319555 2.5747533
000060 c2 c2 bc 3e 57 a4 5a 3f 38 19 40 3f 0d 19 8b 3f
       0.36867338 0.8540701 0.7503848 1.086702
000070 98 2a 15 3f 0c 23 9d 3f 21 84 6c 3f 26 8b 36 40
       0.5826812 1.227632 0.9238911 2.852243
000080 d1 49 1b 40 e9 2c 6b bf 37 db 24 3f 15 7b b6 bf
       2.4263804 -0.918654 0.64396995 -1.4256312
000090 09 98 19 3f f2 25 b8 3f 67 0f 70 3f 21 9a 26 3e
       0.5999761 1.438658 0.937735 0.16269733
0000a0 e2 f1 d6 3e 17 47 48 bf e1 6c 67 bf c5 3e 95 3f
       0.41981417 -0.78233474 -0.9040051 1.1659781
0000b0 a7 09 02 40 17 a3 30 be 9b 71 2a 3f 58 6e e7 3e
       2.0318391 -0.17249714 0.665796 0.45201373
0000c0 d2 a3 da bb 8f 68 7c 3f fa ea 9e bd 96 b9 81 3f
       -0.006672361 0.98597044 -0.07759662 1.0134761
0000d0 b9 eb 2d 3f d7 ef 78 3f 7b 7f 62 3f 12 2d c7 be
       0.6793781 0.97240967 0.8847577 -0.38901573
0000e0 a1 65 85 3f 83 76 fd be 5d ae 87 3f c1 33 99 3f
       1.042164 -0.4950448 1.0600086 1.1968919
0000f0 fc 9e 23 3f fc 92 5b bf 1c c5 b4 3e 91 14 40 3f
       0.63914466 -0.85771155 0.35306633 0.7503138
000100 14 09 8f 3f ea e9 cb bf 4e 99 da 3f 9b 47 8b 3f
       1.1174645 -1.593076 1.7078035 1.0881227
000110 d2 52 d8 3f 03 e7 92 be 4d 0d f7 3e 84 8e 0f 3f
       1.6900275 -0.28691873 0.48252335 0.56076837
000120 0e 72 44 3c 36 8c 15 3f 24 18 de 3f 76 f2 74 3f
       0.011990083 0.5841707 1.7351117 0.95682466
000130 fa 63 88 3f 02 4a c0 bf 4a ae a2 3f 01 64 8c be
       1.065551 -1.5022585 1.2709439 -0.27420047
000140 4a 17 3e bf 9f f3 54 bf ff f2 8e bd f7 36 83 3f
       -0.74254286 -0.83184236 -0.069799416 1.0251149
000150 86 59 68 3f 6f 6f d7 3f 78 64 9e bf 55 65 56 bf
       0.907616 1.6830882 -1.2374411 -0.8374837
000160 c6 30 5d 3f 81 df aa 3e 19 50 7d 3e db 94 e5 3f
       0.8640255 0.33373645 0.24737586 1.7936052
000170 11 58 0a 40 a1 a0 94 3e 1e 20 81 be 37 2b 6d 3f
       2.1616251 0.290288 -0.25219816 0.92644066
000180 a4 7e bd be d4 67 a9 3f d3 23 95 3f 41 a2 82 be
       -0.37010682 1.3234811 1.1651558 -0.25514415
000190 62 e6 22 3c f6 18 85 3e 92 96 02 40 0f f3 b4 be
       0.009942623 0.25995606 2.04044 -0.3534169
0001a0 47 29 32 c0 b2 c9 24 40 0b d0 13 3f fd cf f7 bb
       -2.7837694 2.5748105 0.57739323 -0.007562636
0001b0 dc 29 cd bf 04 3c f6 3f 32 26 89 bf 12 13 fe bf
       -1.60284 1.9237065 -1.0714781 -1.984957
0001c0 7a 77 89 be f6 8b 21 be 4c a5 8a 40 0b a1 08 40
       -0.26848966 -0.15776047 4.332678 2.1348293
0001d0 1a 4c 71 bf 58 84 20 bf fc 61 c3 3d c5 18 91 3f
       -0.94256747 -0.6270194 0.095401734 1.1335684
0001e0 5e 16 80 3f e9 67 7b 3f bb b4 5f 3e 6b fe 20 bf
       1.0006826 0.9820543 0.21846287 -0.6288821
0001f0 58 be f8 3f 55 7d 00 3e ac 1a 45 bf 4d 5d f5 be
       1.9433088 0.1254781 -0.76993823 -0.47922745
000200 82 c9 11 3e c7 50 41 3f 29 03 54 c0 fc 26 bc 3e
       0.14237025 0.7551388 -3.3126929 0.36748493
000210 1f 7c 84 3f d1 e3 90 bf 71 b0 30 be bb 76 17 3f
       1.0350379 -1.1319524 -0.17254807 0.59165543
000220 8d f6 fc bf f1 79 a0 be b5 97 3b bf 14 be 2d 40
       -1.9762741 -0.31343034 -0.7327836 2.7147264
000230 5e ae 60 3e 07 c5 8e 3e 22 09 84 3f 95 f4 7b 3e
       0.21941516 0.27884695 1.0315287 0.2460502
000240 68 16 c8 3c 79 77 33 3e d3 74 a1 3f e3 14 3a 3f
       0.024424747 0.17526044 1.2613777 0.7268812
000250 bc e0 f0 3f 94 e1 88 3f 85 7e ff bd 77 f5 4b 40
       1.8818583 1.0693841 -0.124753036 3.186857
000260 f7 3c a6 3f f9 de 20 3f 27 34 e2 3f f0 53 21 c0
       1.2987355 0.6284023 1.7672166 -2.5207481
000270 13 e1 e7 bb 62 cf 05 bf 6a 7d e2 bf 25 1d a8 3f
       -0.0070763915 -0.52269566 -1.7694523 1.3133894
000280 d9 65 d4 3f 7b 48 2d 40 c8 2d d8 bf 50 f7 09 bf
       1.6593581 2.7075489 -1.6888971 -0.53892994
000290 93 b2 c3 be df b7 dd 3f 4b dd 04 40 f6 07 20 3f
       -0.3822218 1.7321738 2.0760067 0.6251215

U f4 [6, 24]
000000 6c 69 7c be 8f c4 91 3f dc 52 33 3f 49 57 fc 3e
       -0.2464959 1.138811 0.7004831 0.49285343
000010 e2 8d 00 3f 46 e9 71 bf 76 83 d3 3f 4d 6f dc bd
       0.50216496 -0.9449657 1.6524494 -0.107634164
000020 1e 84 48 3f 3b b5 e5 bf ff 88 2e 3d 60 bd 8e 3d
       0.78326595 -1.7945932 0.04261112 0.06969714
000030 c3 73 de 3e 26 8d 91 3e 88 3f bd bf 77 11 83 3f
       0.43447694 0.28428 -1.4785013 1.0239705
000040 69 07 55 3e 63 43 d0 3c 08 2f 22 3e 39 62 0e 3f
       0.20803608 0.025422757 0.15838253 0.55618626
000050 35 41 9b 3f ee 4c e9 3e 34 25 7a 3e 29 4d 45 3f
       1.2129275 0.45566505 0.24428254 0.7707086
000060 4f de 13 40 f2 07 49 3f 7b c8 b2 3f 7c 4e 3c 40
       2.3104436 0.7852775 1.3967432 2.9422903
000070 c4 24 21 3f fa 02 d0 bf f5 79 66 bf 78 f8 95 bf
       0.62946725 -1.6250908 -0.9002984 -1.1716452
000080 97 11 99 be d6 ab cd 3e 01 cd 3b bf e4 0f b1 3f
       -0.29896232 0.40170163 -0.73359686 1.3832974
000090 78 68 1f 3f 26 fa 9c 3e c7 c8 87 be 56 01 ed bd
       0.6226878 0.30659598 -0.26520368 -0.115725204
0000a0 dd c5 2e bf 7c 43 1e 3f 7c 24 e6 bf 3e 6d 92 3f
       -0.68270665 0.61821723 -1.7979884 1.1439588
0000b0 fe 8e 72 3f 7e 6f 6a 40 9a a6 81 3e 25 80 42 be
       0.9474944 3.663055 0.2532242 -0.18994196
0000c0 25 5b d9 3f f9 dc d0 bf df aa 7d 3e f0 b5 6b 3f
       1.698094 -1.6317436 0.24772213 0.9207449
0000d0 94 7c 71 bf 1d f3 07 c0 75 f7 6b be ea b7 ce 3f
       -0.94330716 -2.1242135 -0.23043616 1.6149876
0000e0 f1 73 a1 bf 61 cf 10 bf 59 ed d4 3e e3 00 54 3f
       -1.2613508 -0.56566435 0.41587332 0.82813853
0000f0 b4 34 6f be be 5e 47 3f 83 06 89 3f 26 e2 fe 3f
       -0.23359948 0.7787894 1.0705112 1.9912765
000100 d0 08 a1 be 0b 20 59 bd 0a aa 7a 40 e5 cb 80 be
       -0.31452036 -0.053009074 3.9166284 -0.2515556
000110 40 12 06 3f bc 10 b8 3f 2b 0a e8 bf d2 54 93 bf
       0.523716 1.4380107 -1.8128103 -1.151026
000120 da 9c c2 3e 11 1b c8 bf 4a f0 83 bf f1 49 a6 bf
       0.38010293 -1.563326 -1.0307705 -1.2991315
000130 32 97 a3 be 92 78 58 bf ce 51 0a bf b4 83 85 3e
       -0.3195129 -0.84558976 -0.54031074 0.26077044
000140 26 30 97 be b0 f3 55 3e 6b 47 0a 3e 80 a1 2b bd
       -0.29528922 0.2089374 0.13503806 -0.041902065
000150 2f 9c a2 bf 5e 14 c8 3e 52 69 d1 3f 3c 8b 99 3e
       -1.2703913 0.3907804 1.6360266 0.2998904
000160 b1 f2 9b be 09 ac b6 3d 18 ac 73 be f6 1c 0d c0
       -0.30458596 0.08919532 -0.23796117 -2.2048926
000170 54 f2 26 3e 46 78 e6 3d 18 f0 9c bf a3 02 af bf
       0.16303378 0.11253409 -1.2260771 -1.367268
000180 27 d3 30 40 7f a2 36 3f 33 5b f2 3f b4 2d 1b 40
       2.7628877 0.713417 1.8934082 2.4246645
000190 01 8f a4 3f a7 53 1d 3f 83 13 0c 3f 44 42 9d 3f
       1.2856141 0.6145577 0.5471727 1.2285848
0001a0 42 07 1a 3f fa 8d 79 3f 7f 0e d4 3e 9c ca 2f bf
       0.60167325 0.97482264 0.4141731 -0.6866853
0001b0 78 92 34 3f c6 36 9c be ae bc f8 3d 54 73 11 bf
       0.70535994 -0.3051054 0.12145363 -0.568166
0001c0 72 00 07 bf d4 0e 1b be 2d ac 0a 3f 99 c2 a1 3f
       -0.52735054 -0.15142375 0.5416897 1.2637511
0001d0 02 e3 97 3f 04 cd 17 40 8b b3 80 3f 4e 4b e1 3f
       1.1866152 2.3718882 1.0054792 1.7601106
0001e0 0a 62 b5 3e 6d b3 a9 bc 05 2b 23 be 79 4d 96 bf
       0.3542636 -0.02071544 -0.1593438 -1.1742393
0001f0 2e 78 80 bf 0a 34 b8 3e aa 90 94 3f 7d 99 8b 3f
       -1.0036676 0.35977203 1.1606648 1.0906216
000200 e9 44 31 bf 00 f3 81 be bf a7 d5 3e c8 98 1a bf
       -0.69245774 -0.25380707 0.41729543 -0.60389376
000210 92 78 e4 bf b5 b1 c9 be f9 24 9d 3f 5b 8a 72 3f
       -1.7849295 -0.39393392 1.2276908 0.94742364
000220 7f b1 17 3e c6 47 60 bf 43 1c 39 40 98 42 6c 3f
       0.14813803 -0.8760952 2.89235 0.92289114
000230 03 44 cf 3f f3 35 87 bf b2 e5 52 bb 50 c0 38 bf
       1.619263 -1.0563339 -0.0032180366 -0.72168446

hid_bias f4 [24]
000000 bf e5 8f 3f 80 6b e1 3f 5d c9 be 3f d6 b7 02 3f
       1.1241988 1.7610931 1.4905201 0.5106176
000010 c3 e7 48 3f 60 6a ff 3f e3 5b 8a 3f a3 b4 ae 3e
       0.7847864 1.9954338 1.0809292 0.3412219
000020 b9 f5 27 3e 20 49 ff bc 7c 72 e2 3e 78 58 07 bf
       0.1640233 -0.031162798 0.4422797 -0.5286937
000030 69 3b ad be 0f f5 43 be 4c ac 81 3e 60 45 b0 be
       -0.3383439 -0.19136451 0.25326765 -0.3442793
000040 50 9a 72 3f 73 08 aa be 10 73 a1 3f 48 60 95 3f
       0.9476671 -0.3320957 1.2613239 1.1670008
000050 9d b2 57 3f 62 37 49 3f d1 fc 8c 3f b1 b6 3b 40
       0.8425692 0.7860013 1.1014653 2.9330256

V f4 [6, 7]
000000 2b 66 04 c1 b3 ac 7d bf ca 4c e9 3f 1a ed dc 3f
       -8.274943 -0.99091643 1.8226559 1.7259858
000010 d7 ce fb be bc 68 1d c0 a0 39 ba be ce b2 7f 3f
       -0.49181244 -2.4595175 -0.3637209 0.9988221
000020 3f 19 c2 3f 75 88 aa 3f 58 64 a4 3f 4b c3 e2 bf
       1.5163954 1.3322893 1.2843122 -1.7715849
000030 30 3f 8b 3f 41 76 e4 c0 00 19 b1 40 cf 12 14 bf
       1.0878658 -7.1394353 5.5343018 -0.578412
000040 31 1b 85 3f 66 31 c4 3f 12 ec 59 3f 37 1e cd bf
       1.0398923 1.5327575 0.8512584 -1.6024846
000050 28 15 2d c0 7f 3b 45 3e a4 19 d8 be 98 92 1f 40
       -2.7044163 0.19260977 -0.42207062 2.4933224
000060 b2 be 1c 40 29 9e bf bf a7 18 f9 bf 87 ba a0 40
       2.449139 -1.4970142 -1.9460648 5.0227695
000070 72 ba 29 c0 4a d9 e4 3f 92 fa 59 bf 1e 39 5d bf
       -2.6520047 1.7878811 -0.85147965 -0.8641528
000080 47 60 b8 be 9c e6 92 bf 4b f7 71 40 22 da be c0
       -0.36010954 -1.1476626 3.7807186 -5.9641275
000090 df 22 10 40 76 c6 02 c0 e5 95 00 c0 9d 3f 24 40
       2.2521284 -2.043363 -2.0091488 2.5663826
0000a0 d5 cb b5 bf 32 7b c3 c0
       -1.420283 -6.1087885

out_bias f4 [7]
000000 29 35 2f c0 58 be 58 3e c4 8a 1b be 66 6e 5d be
       -2.7376196 0.2116636 -0.15189654 -0.21624145
000010 79 dc 01 3f 5a ab 03 bf c0 2a 46 c0
       0.5072704 -0.51433337 -3.0963593
