hw1/py/net/reber_srn2_50.pth (torch, 2071 bytes, 6 tensors)

H0 f4 [2]
00000000: e700 6ebf d12a 6a3f
-0.92970127 0.9147158

W f4 [7, 2]
00000000: ee3a d8bf 8475 ffbd 355b 0640 03b1 f73f
00000010: e39d c540 ae28 cfbf dbc7 a23f a259 37be
00000020: 4dcc 33c0 4581 1440 60d4 5140 c365 dabe
00000030: 887c 5d80 e899 8380
-1.6892984 -0.12473586 2.0993168 1.9350895 6.1755233 -1.618429 1.2717241 -0.17905286
-2.8093445 2.32039 3.2785873 -0.42655763 -8.585375e-39 -1.2085661e-38

U f4 [2, 2]
00000000: 862c 7d3f 09c6 d83f a485 6cc0 b23e 143e
0.9889606 1.6935436 -3.6956568 0.14477041

hid_bias f4 [2]
00000000: f6a9 a43e df88 0a3f
0.3216092 0.541151

V f4 [2, 7]
00000000: 2074 843f 1aec 70c0 f384 7040 ba74 8c40
00000010: da04 46c0 1a59 afbf 73a0 4741 1306 403e
00000020: e09b a2bd 2a67 4440 6dd2 0440 cdc8 2bc0
00000030: b775 673e b26d 05c1
1.0347939 -3.7644105 3.7581146 4.389249 -3.094046 -1.3699067 12.476672 0.18752317
-0.07939887 3.0687966 2.0753434 -2.684131 0.22603498 -8.339281

out_bias f4 [7]
00000000: c703 a8c0 8e61 75bc 988f 423d af2a 733e
00000010: 8a93 4abf d77a f23f 3c85 c3c0
-5.250461 -0.014976872 0.047500223 0.23746751 -0.79131377 1.8943738 -6.110014
