hw1/py/net/reber_lstm7_50.pth (torch, 3611 bytes, 5 tensors)

W f4 [7, 28]
00000000: ea3c fd3f e599 613f 431e c83f 6ef3 2e3f
00000010: d9fe aa3f 3d25 4c3e 8e76 553e 1b12 973e
00000020: 18d5 bcbe b720 ee3f 3a05 193e 81cd d6be
00000030: 2495 0c40 53df a9be b5af 6fbf 3f61 f33e
00000040: 4ee6 1f40 c0a0 ff3f cd68 bd3f 5cf9 0b3f
00000050: 6543 67bf eb40 fcbd 9c9b 8f3f c915 0540
00000060: b6c0 cc3f 5b4a eb3f e166 b53f 9192 ebbe
00000070: fbc1 9b3f c80a d83e bc00 c03f b239 8fbd
00000080: b5fe 603f c681 c1bf 1fb1 c03e 6f7f 3840
00000090: d04d b5bd 930c 88c0 4dd6 8ebe ae52 29bf
000000a0: caee 953e 2650 3fbe 61a0 82bf fd0e cc3d
000000b0: ee6c bfbe 4c98 bcbe 244f f6be d153 05be
000000c0: 78bd ef3f d6fc a93f 21d1 963d 25a5 6e3e
000000d0: d8d1 46bd 9461 983f d43b c6bf 4f41 293f
000000e0: be66 9cbf d514 a23e 4f2d 15bf 2d2c 0a3f
000000f0: 2cd2 303e 8a33 c43f 988b 2d40 eb93 3240
00000100: 2d4a f13d 3d2d 843e 0f7f 0dbf 1f37 953f
00000110: 38c9 5bbf 85a2 a53e 8911 02bf c547 183f
00000120: 6834 f4be 8a16 8dbf 961c c6bf c1a9 0dc0
00000130: bb59 3240 0103 dd3e 3f8d 4dbf 8755 713e
00000140: b07e e43e 920b 823f 6d40 f23d 9160 ca3f
00000150: 32ca 4e40 7679 ef3e 1cc6 2c40 d3a3 cf3f
00000160: 215c 8e3f aaa0 d63e 589a 723f ab53 42bf
00000170: ad39 97be be10 b3bf 5fd5 98bf 1600 183f
00000180: 8939 34bf 5361 793f 1659 c43f a788 07bf
00000190: 558e 3ebf f65c cd3e 6948 4bbf 7fff 1f40
000001a0: 31b2 e43f bb50 b23e 2398 2dbd cb16 6d3f
000001b0: 808c df3d 8d0e a93f d8c7 85bf 07b5 8d3f
000001c0: 4ff5 f63f 7302 04bf 52e0 7abf 0e61 b63f
000001d0: 3af4 1b3f 5095 853f 6ebc 363f 5349 11c0
000001e0: d147 8ebc b84d e13d d245 f2bf da97 743f
000001f0: 97f8 db3f 8fc5 82bf 5eb3 b13f 72af c8bd
00000200: 559d b1bd 7cb3 de3e f94b dabd 44f3 153f
00000210: 6b60 d73f 6d71 a2be 2dde d7be 4800 05bf
00000220: be38 863f f97c ce3f 4085 4240 4924 a63f
00000230: 95ff e43d 4fef c23f 690f 3ebd 072e 1f3f
00000240: 378b 23bf 124f 2c3e 76c9 0fbc 9e17 243f
00000250: 63f1 9dbe 3ac5 aebe c854 b03f 5ae9 8ebd
00000260: 0f63 d5be 1a0d 3abf b079 a03e dd6a ca3e
00000270: 9b49 f33f 0e47 31c0 ea5a 393f 859f 01bf
00000280: 1921 77bf a35b 763f 7c43 0f40 a0e6 a03d
00000290: ed59 063f be3d 5fbe adde 933d 1ae2 9fbd
000002a0: 2e4c 5cbf 38b8 a8bf a9bb dc3f 9566 0040
000002b0: 56c1 603e 6cb0 833f 764d a3be 493c 06bc
000002c0: c141 1840 1fc7 00c0 34ac 07c0 a1e1 a33e
000002d0: be9c 0d40 c3cc c7bd 5506 15be 1a7b 123f
000002e0: c6e4 8d40 5b3c a23f 82fe a5be 8e6a d0bf
000002f0: b6db 28c0 8c71 813e 5ab9 b73f 4ad8 2f3e
00000300: 917a 8d3f 5f4e 4ac0 e8fa 9cbf e52e 2440
1.9784214 0.8812545 1.5634235 0.68340194 1.3359023 0.1993608 0.20846006 0.29506
-0.36881328 1.8603734 0.149434 -0.41953662 2.1966028 -0.33178195 -0.9362748 0.4753513
2.4984317 1.9970932 1.4797608 0.5467737 -0.9033721 -0.123170696 1.1219363 2.0794547
1.5996311 1.8382066 1.4172021 -0.4601026 1.2168573 0.42195725 1.5000224 -0.069934264
0.8788865 -1.5117729 0.37635133 2.882778 -0.08852732 -4.251535 -0.27897874 -0.66141784
0.29283744 -0.18682918 -1.0205194 0.09963796 -0.37387794 -0.36834943 -0.48107255 -0.13020255
1.8729696 1.3280284 0.07364107 0.23305185 -0.048539966 1.1904778 -1.5487008 0.6611528
-1.2218854 0.3165652 -0.5827226 0.53973657 0.17267674 1.5328228 2.7116451 2.7902782
0.11781726 0.25815764 -0.55272 1.1657447 -0.8585391 0.32350555 -0.50808007 0.5948451
-0.47696233 -1.1022503 -1.5477474 -2.213486 2.7867267 0.43166354 -0.8029365 0.23567782
0.44627905 1.0159781 0.118286945 1.581072 3.231091 0.46772355 2.6995916 1.622187
1.1121866 0.41919452 0.9476676 -0.7590892 -0.2953619 -1.3989484 -1.1940116 0.5937513
-0.7040029 0.9741413 1.5339687 -0.5294289 -0.7443593 0.40109986 -0.79407364 2.4999692
1.786688 0.34827217 -0.042381417 0.92612904 0.1091547 1.3207566 -1.0451612 1.107087
1.9293612 -0.5156624 -0.97998536 1.4248369 0.60919535 1.0436192 0.7138127 -2.2701004
-0.01736823 0.11001152 -1.8927557 0.9554421 1.7185239 -1.021654 1.3882864 -0.097990885
-0.08672587 0.4349631 -0.10659022 0.5857432 1.68263 -0.31727162 -0.42161694 -0.51953554
1.0486066 1.6131889 3.039383 1.2979823 0.11181561 1.5229281 -0.046401415 0.6217961
-0.638843 0.16827038 -0.008776059 0.64098537 -0.30848226 -0.34134847 1.3775873 -0.06978102
-0.41677138 -0.7267624 0.3134284 0.39534655 1.9006838 -2.7699618 0.7240435 -0.5063403
-0.9653488 0.96233577 2.238494 0.07856488 0.52480966 -0.21800897 0.072202064 -0.07806797
-0.8605374 -1.3181219 1.7244769 2.006261 0.21948752 1.0288215 -0.31895036 -0.008193084
2.3790133 -2.0121534 -2.1198854 0.3200808 2.2126918 -0.09755852 -0.14553197 0.5721909
4.4341764 1.2674669 -0.32420737 -1.6282518 -2.63841 0.25281942 1.435344 0.17172351
1.1053029 -3.1610334 -1.226407 2.5653622

U f4 [7, 28]
00000000: f5ad e83f 07d5 1abf a0a5 813f b4e0 db3f
00000010: 3b3d 05bf 233f c83f 08eb 1240 de39 86bd
00000020: 2dc3 a5be cd97 1dc0 f914 55be 5202 313f
00000030: 8fed f13e 0094 f0bf 99b5 013f 3ee6 ee3e
00000040: 336d 8b3f de83 c23e ebca 81be e561 c6be
00000050: 4e5b 123e 4f45 9dbf f423 4fbf 4d2c 343f
00000060: a40a 0e3e 5f0f 76bf 7387 4840 4213 df3f
00000070: 4ed6 12bf ee6c aabf 8658 e9bf 53c0 dfbf
00000080: 5eec 0bbf 81f1 abbf 6b49 09c0 391e b73e
00000090: f10b 953e 1782 723f cf25 df3e 82ae 393f
000000a0: 1c7b c03e d70a 903f 67f6 00c0 4756 fe3e
000000b0: cf74 263f 26a7 88bd 2896 b53f 31f2 393f
000000c0: 5825 2abf f5c5 d8be 408e 08bf 632c 4ac0
000000d0: 0679 98bf c1e9 9ebf bdab a4bf abc5 ccbf
000000e0: 48ec 963f c758 2b3f ac39 633f 1b39 413f
000000f0: 1a81 3f3f 9c67 503f 42b2 6240 6881 aabe
00000100: d6b1 95be 209c 813d 541f 93be 9842 913b
00000110: 81e1 7c3f dfd0 a2c0 3e07 bf3e a82b c53d
00000120: ae99 aabe 1ec6 903e 6138 42bf 6b9f 083e
00000130: 3e7f 9a3e 8f06 39be 4bdd cc3e 97e5 2d3f
00000140: c7fc 413f 9c59 3bbd a5a3 b93f 8d38 0740
00000150: 394b d33f ac00 2dbf ecd9 b5bf 4209 573f
00000160: d410 38bf a580 b5be 9c06 ae3f c88c f3be
00000170: df50 2dbf 7a04 a3be a967 86bf 1361 9b3f
00000180: 0600 f33e 582b 65bf 0668 b3bf 46e5 383f
00000190: 861f 4240 73e4 a9bf 57e6 d73f efbf 033f
000001a0: 207d 06bf 7791 c43f 85ac 9ebf 80f1 27c0
000001b0: 77b6 b8bd 6877 74bd d460 0c40 78e5 ecbe
000001c0: 5962 633f a75a 943d 1023 e6be d51f bfbf
000001d0: 70cf 683f 84c8 91bf 85a0 583f 5aac 21bf
000001e0: 60ae 3e3f 0150 d03e c47e a73f cb45 d8be
000001f0: b565 df3c ef68 bd3e 7254 40bf 63bf 6cbe
00000200: 9de8 ccb9 da0b 1cbf 13e2 75bd 68e4 e2bd
00000210: e0aa 2c3f ebbd 743f 0e39 763e ec57 a5bf
00000220: 99fc 6cbf 3d55 a43f 9659 7bbf 5bc1 97bd
00000230: 3e88 a23f ec08 7b3f 0a89 1140 ef18 4fbe
00000240: a73e e83e c691 c83f 7f47 b73f ebbf 423f
00000250: 55fd 0d40 d89d e1bf 707e 283f 8b9f 9cbf
00000260: 09c3 be3d 338b 87bf 02ae 433f 8984 7dbf
00000270: 4fcc d53f d6fe 473f beb5 1a3f 3d34 d33e
00000280: ad4f 6bbd 3172 8840 b3f4 103f ad4b c3be
00000290: 3bbb 05bf be2b d33f 5f8d 8a3f fdb9 cf3e
000002a0: 6a10 4a3f 7ee6 de3f 377a 093f daef 63be
000002b0: cd87 4b3c 368f 643f 851a c83e 7b34 123f
000002c0: 7e5c a43f c1ac 0e3d 4be2 02bf 7434 4dbf
000002d0: d0fb 5a3c fbe2 ab3e 31cc 7a3f 3e80 f2bf
000002e0: f2bc 983f dacf 203f f00d 8dbe a192 453f
000002f0: 4a6c 8bbf e177 9f3f 662d 683f 410b 3a40
00000300: 24d8 bd3e eb6d 88bf 48ad 093f 1aaa 903c
1.8178087 -0.60481304 1.012867 1.7177949 -0.52046555 1.5644268 2.2955952 -0.06554006
-0.3237547 -2.4623902 -0.20808782 0.69144166 0.47251555 -1.8795166 0.5066772 0.46660036
1.08927 0.37991232 -0.25350127 -0.38746563 0.14292642 -1.2286776 -0.80914235 0.703801
0.13871247 -0.96117204 3.1332672 1.7427752 -0.57358253 -1.3314493 -1.823014 -1.7480568
-0.5465754 -1.3433076 -2.145106 0.35765246 0.29110673 0.9472975 0.43583533 0.725319
0.37593925 1.1253308 -2.0150392 0.496752 0.65021986 -0.06672506 1.4186449 0.7263518
-0.6646323 -0.4233853 -0.53342056 -3.1589592 -1.1911933 -1.2415086 -1.286491 -1.5997823
1.1790857 0.6693234 0.88759875 0.7547776 0.7480637 0.81408095 3.54213 -0.33301854
-0.2923724 0.063286066 -0.2873484 0.0044329874 0.9878159 -5.087997 0.37310213 0.096274674
-0.33320373 0.2827615 -0.7586728 0.13342063 0.30175203 -0.18068908 0.40012583 0.6792845
0.7577633 -0.045739755 1.4503065 2.1128266 1.6507331 -0.6757915 -1.420713 0.839985
-0.7190068 -0.3544971 1.3595767 -0.47568345 -0.67701524 -0.31839353 -1.0500385 1.2139
0.47460955 -0.8951926 -1.401612 0.72224844 3.033174 -1.3272842 1.6867169 0.5146474
-0.52534676 1.5356892 -1.2396399 -2.624115 -0.090191774 -0.059684187 2.19341 -0.4626882
0.8882194 0.07243853 -0.44948626 -1.4931589 0.90941525 -1.1389318 0.84619933 -0.6315361
0.74484825 0.40686038 1.3085561 -0.42240748 0.027270177 0.3699412 -0.75128853 -0.23119883
-0.00039083223 -0.60955584 -0.060030054 -0.11078721 0.67448235 0.9560229 0.24045202 -1.2917457
-0.92572933 1.2838513 -0.9818357 -0.074099265 1.2697828 0.9806049 2.2739892 -0.20224355
0.453603 1.5669487 1.4318694 0.76074094 2.2185872 -1.7626295 0.6581793 -1.2236189
0.09314544 -1.0589355 0.7643739 -0.9903036 1.6702975 0.78123224 0.60433567 0.41250792
-0.05744903 4.2639394 0.5662338 -0.38143674 -0.52238816 1.6497724 1.0824393 0.40571585
0.78931296 1.7414091 0.5370211 -0.22259465 0.012422514 0.8928102 0.39082733 0.5711133
1.2840726 0.03483272 -0.51126546 -0.8015816 0.013365701 0.3357161 0.9796782 -1.8945386
1.1932662 0.62817156 -0.27549696 0.7717686 -1.0892422 1.2458459 0.9069427 2.906937
0.37078965 -1.0658544 0.5378003 0.017659236

hid_bias f4 [28]
00000000: 520e 983f 9e75 a33e 311b f43f 495c c53f
00000010: 5163 0940 51f4 273f 13b8 5e3f 6c69 c13e
00000020: 5cb5 803e 15fe bbbe b9e9 79bf 4a44 9ebd
00000030: 59a4 48bd 2826 833e e47d 97be d8a3 8cbe
00000040: 0b44 863e 9f14 553e 1b75 b63e 5996 8dbd
00000050: b099 9b3e 6ab6 733f c395 773f 9c8d c43f
00000060: bd09 2d40 93a7 d63f 994d 333f 6359 a13f
1.187937 0.31925672 1.9070798 1.5418788 2.1466868 0.6560717 0.86999625 0.37775743
0.25138366 -0.36717287 -0.9762226 -0.07727869 -0.04898486 0.25615048 -0.29588234 -0.27468753
0.26223788 0.20808648 0.3563622 -0.06913442 0.30390692 0.95200217 0.96712893 1.5355716
2.7037194 1.676989 0.7004028 1.2605404

V f4 [7, 7]
00000000: b2f9 85bf b730 d4be f83f 93bf a3d6 94bf
00000010: cdb3 d1bd a561 2940 2be8 d83d 7bdd cf40
00000020: 7f73 b33e 39d3 0c3e 8f71 45be e773 8ebf
00000030: 115a 07bf 356f 5140 b9d1 8cc0 4624 ea3f
00000040: 5bf7 7bc0 6b52 70c0 2b69 8d3f e7e5 573f
00000050: 699c 0640 3182 85c0 8be3 1c40 3beb 533f
00000060: 10b7 993e 1c9b 3a3f 65c5 94bf 8347 e0c0
00000070: ceab ab40 ce85 ab3f 8ec9 dfbf 5d22 cebf
00000080: 8331 3740 a18b 8cbf f8c3 14c0 ea64 cd3f
00000090: 0cc7 c13f d7d9 7cbf 403a b7bf 7602 b9be
000000a0: bbab 0240 009a fdc0 3850 8440 ff4a aa3f
000000b0: 9ab9 2d3f 3ace 883f 683a 89c0 51c6 c1be
000000c0: fc45 5940
-1.0466826 -0.41443416 -1.1503897 -1.1628002 -0.102393724 2.6465847 0.105911575 6.495786
0.35049054 0.1375245 -0.192816 -1.112912 -0.52871805 3.2724125 -4.400601 1.829232
-3.9369724 -3.7550304 1.104772 0.8433518 2.1032965 -4.1721425 2.4513881 0.8278081
0.30022478 0.7289293 -1.162274 -7.0087295 5.3647223 1.3400209 -1.7483385 -1.6104237
2.862397 -1.0980111 -2.324461 1.6046422 1.5138869 -0.987699 -1.4314651 -0.3613469
2.0417316 -7.925049 4.1347923 1.3304137 0.6786133 1.0687935 -4.2883797 -0.37846616
3.3948965

out_bias f4 [7]
00000000: c2a0 9cbf 0a44 e83e 56a7 78be 7596 d5be
00000010: 75e5 c03e d05b fdbe 8096 49c0
-1.2236559 0.4536441 -0.24282584 -0.41716352 0.37675062 -0.4948411 -3.1498108
