hw1/py/net/reber_lstm6_30.pth (torch, 3163 bytes, 5 tensors)

W f4 [7, 24]
000000 3a 63 ad 3f ee fb 9d be b2 1b 6f 3e db d2 12 3e
       1.3545907 -0.3085627 0.23350409 0.14338247
000010 12 84 7b 3f b8 b6 4a 40 b5 9d be bf 07 8c 0d 3e
       0.982484 3.1674023 -1.4891878 0.13822947
000020 bd 7c f9 bc bf 87 b9 3f fc 48 50 3d c0 24 63 c0
       -0.030454988 1.4494551 0.050850853 -3.549118
000030 d1 1a b5 be 0e 55 4d bb 93 98 9a 3e d0 a9 f5 be
       -0.35372022 -0.0031331214 0.3019453 -0.4798112
000040 51 f8 84 3f f7 21 40 40 ec 67 0a 3f 8e f7 aa bf
       1.038828 3.002073 0.5406482 -1.3356798
000050 eb 31 2b 3f 1c 51 35 3f 90 ed df 3f a6 a6 18 40
       0.66873044 0.7082689 1.7494373 2.3851714
000060 ed d4 9c 3e e9 4b 73 3f df 92 1b 3f 89 91 58 3f
       0.306312 0.95037705 0.6077098 0.8459707
000070 92 e3 fa 3e bb 9f 7b 3f a8 f3 54 3f 59 a4 46 40
       0.49001747 0.98290604 0.8318429 3.103781
000080 cb f7 20 40 a7 1d 89 bf 57 97 e4 3e 39 73 c3 bf
       2.515124 -1.0712174 0.44646713 -1.5269538
000090 f5 1a 31 3f a5 21 ca 3f f8 b1 8c 3f fe ff 71 3e
       0.6918176 1.5791517 1.0991812 0.2363281
0000a0 4e 21 51 3d ec b3 33 bf 8b 54 96 bf 0f b6 a1 3f
       0.051057152 -0.70196414 -1.174455 1.2633685
0000b0 06 f6 d5 3f 73 2b 6e be f6 5f 3c 3f ad 5e d3 3e
       1.6715705 -0.23258762 0.73583925 0.4128317
0000c0 bb 3d eb 3e 48 1d ad 3f 7e 71 34 bf c0 84 bf 3f
       0.45945534 1.3524561 -0.70485675 1.4962387
0000d0 db 1a 4a 3e 61 f0 76 3f ea 59 3e 3f 56 fd 2c bf
       0.19736807 0.9646054 0.7435595 -0.6757406
0000e0 71 7d 95 3f 12 b3 bd be c9 7e c2 3f a6 f0 97 3f
       1.1678907 -0.37050682 1.5194942 1.1870315
0000f0 64 c7 28 3e 60 b8 90 bf 53 d1 b8 3e 0a 88 2d 3f
       0.16482311 -1.1306267 0.36097202 0.67785704
000100 48 79 b0 3f ed f6 d7 bf d4 85 e7 3f a7 54 ba 3f
       1.3787012 -1.6872231 1.8087716 1.4557084
000110 1d ad b5 3f cc 5b 39 3f 1f a4 9f 3e 7c 78 0e 3f
       1.4193455 0.72405696 0.31179902 0.55652595
000120 6b 82 d5 3b 12 e4 02 3f c1 0c 99 3f 76 c2 55 3f
       0.006515791 0.5112926 1.1957017 0.8349985
000130 2c 51 95 3f bb d8 c1 bf 31 9f 93 3f 36 10 be be
       1.1665397 -1.5144266 1.1532956 -0.37121743
000140 26 97 70 bf 32 e0 19 bf e3 21 07 be 5b ff 8b 3f
       -0.93980634 -0.6010772 -0.1319652 1.0937303
000150 db df 9b 3f 6f 34 af 3f 78 4c 9e bf de 5a 8c bf
       1.217769 1.3687876 -1.2367086 -1.096523
000160 22 20 4f 3f 66 27 ac 3e 08 8e 61 3e 0c be fa 3f
       0.80908406 0.3362381 0.22026837 1.9589248
000170 f9 4a 1a 40 ce cb d5 3e 49 9a 09 be 7c 3b 25 3f
       2.410826 0.41757053 -0.13437761 0.6454389
000180 2d 0c cd be 7a cd 93 3f 06 64 0c 3f c3 72 07 bc
       -0.40048352 1.1547081 0.54840124 -0.008267107
000190 a0 c1 04 be 72 4c a9 3e a4 a9 13 40 97 35 65 be
       -0.12964487 0.33066136 2.307229 -0.22383724
0001a0 4f aa 2d c0 64 04 51 40 e8 75 54 3f 15 6b 91 bd
       -2.7135198 3.265893 0.8299241 -0.071005024
0001b0 59 b8 db bf 61 19 f3 3f ba 72 8f bf c4 78 f9 bf
       -1.7165633 1.899212 -1.1206887 -1.948998
0001c0 ec 58 69 be be 06 fd bd d1 f1 87 40 fb 1f ac 3f
       -0.22787827 -0.123548016 4.2482686 1.344726
0001d0 ca bb 6e bf 54 86 2d bf 80 40 5a 3d f3 b7 87 3f
       -0.93255293 -0.67783093 0.05328417 1.0603012
0001e0 f6 a5 4e 3f dd 38 2b 3f 75 bf 67 bf 76 3a ee 3e
       0.80721986 0.6688364 -0.90526515 0.46528977
0001f0 dc ce 0e 40 d4 1d a5 3e 48 ad 7a bf ca c0 41 bf
       2.2313757 0.3224932 -0.97920656 -0.756848
000200 1e c4 88 bc be c6 6c 3f 68 2d 4c c0 86 c1 d7 3e
       -0.016695078 0.92490757 -3.1902714 0.42139834
000210 e0 a6 b9 3f e3 9c b1 bf 3d b1 1f 3c c8 e1 13 40
       1.4504051 -1.3876003 0.009746847 2.3106556
000220 74 c7 dc bf 19 97 cb be e3 3f 06 bf 9a 91 18 40
       -1.7248368 -0.39763716 -0.52441233 2.3838868
000230 8e 8d 6d 3e d0 eb 06 3f 15 46 a9 3f c2 08 34 3f
       0.2319853 0.5270357 1.3224512 0.70325863
000240 52 03 33 bd 5b dc 99 bd e0 e7 b6 3f 87 53 ca 3f
       -0.04370434 -0.075127326 1.4289513 1.580674
000250 f2 40 ec 3f 22 2e bb 3f df de 52 bf 07 33 5c 40
       1.845732 1.4623454 -0.82371324 3.4406145
000260 c0 f7 93 3f 46 54 84 3f 83 28 db 3f 63 01 23 c0
       1.1559982 1.0338218 1.7121738 -2.5469596
000270 ab 5f 16 bf b5 78 ba be 61 ad c0 bf 3b 11 0b 40
       -0.5873973 -0.36420217 -1.5052911 2.1729267
000280 0d 98 b4 3f 13 e6 36 40 d7 37 e7 bf f1 4d 3c bf
       1.4108902 2.8577926 -1.8063916 -0.7355643
000290 92 8b da be 97 7d 47 40 43 fa 16 40 b5 28 46 3f
       -0.4268461 3.1170404 2.3590248 0.77405864

U f4 [6, 24]
000000 03 dd 8e be 06 d4 93 3f f2 35 03 3f 90 83 eb 3e
       -0.27902994 1.154908 0.5125419 0.45998812
000010 9d 0d 97 3e b3 81 72 bf 45 b0 da 3f 18 0a 0a be
       0.29502574 -0.94729155 1.7085043 -0.13480413
000020 9a af 22 3f 7d ec d3 bf a7 11 b9 3d 52 61 10 3e
       0.63549197 -1.6556545 0.0903657 0.14099625
000030 f1 8f f6 3e 84 3e 87 3e 36 b5 bd bf ee 32 7e 3f
       0.48156694 0.26414883 -1.4820926 0.9929646
000040 2d 4f a5 3e b9 8a 05 3e 0f d5 93 3e 5d b8 b1 3e
       0.3228697 0.130412 0.28873488 0.3471097
000050 8b 39 ab 3f e0 8a 0c 3f b5 05 80 3e b3 e2 09 3f
       1.3376936 0.54899406 0.25004354 0.5386154
000060 27 fb 18 40 3c 1f 43 3f 6d 92 de 3f ee ac 05 40
       2.3903291 0.76219535 1.7388436 2.0886798
000070 6f 2b 2a 3f fa 62 d8 bf 54 75 6e bf 43 80 b1 bf
       0.66472524 -1.6905205 -0.9314778 -1.3867267
000080 7d 87 98 be 10 a3 02 3e 96 ac 5a bf 1d 33 b3 3f
       -0.2979087 0.12757516 -0.85419595 1.3999974
000090 af 2b 16 3f 1a ea 90 3e 76 ca 57 be 91 6a 52 be
       0.58660406 0.28303605 -0.21073326 -0.20548464
0000a0 33 a5 6e bf da a6 1e 3f 2e d9 f3 bf 42 1a a3 3f
       -0.93220824 0.61973345 -1.9050653 1.2742388
0000b0 4f 34 92 3f 3b d9 3d 40 60 b1 a4 3e 67 76 c2 be
       1.1422213 2.9663837 0.32166576 -0.3798096
0000c0 24 6b ef 3f 46 2e c7 bf 07 66 30 3f b2 2b 40 3f
       1.8704572 -1.5560997 0.6890568 0.75066674
0000d0 96 85 72 bf a7 05 08 c0 bd f0 9c bd 6c 0c d2 3f
       -0.94735086 -2.125345 -0.07663105 1.6410041
0000e0 f7 92 9f bf 96 af 47 bf 5a 7c 90 3e 86 94 3b 3f
       -1.2466725 -0.780023 0.28219873 0.73273504
0000f0 1a 93 72 be 25 ae 7f 3f 00 af 85 3f e5 79 04 40
       -0.23688927 0.998751 1.0444031 2.0699399
000100 69 cc 11 bf e8 ac 28 3a 07 c1 86 40 1e 5c 84 be
       -0.5695253 0.00064344564 4.211063 -0.2585153
000110 ad 41 2e 3f 87 21 9e 3f 26 d6 fb bf 7d 8a 8a bf
       0.68068963 1.2353982 -1.9674728 -1.0823513
000120 c0 10 ea 3e 4f 59 b4 bf 3c 39 0c bf a8 ae e4 bf
       0.45715904 -1.4089755 -0.5477483 -1.7865801
000130 b6 86 ce be 22 86 6c bf c7 80 32 bf 22 56 bd 3e
       -0.4033715 -0.9239217 -0.6972775 0.36979777
000140 f0 24 9f be 53 a4 a2 3d 8f f8 05 bc f5 ce 81 3c
       -0.3108287 0.079414986 -0.008176937 0.015845755
000150 43 25 9c bf 06 03 a6 3e 2a 49 c7 3f d8 de 4c 3e
       -1.2198871 0.32424182 1.5569203 0.20006883
000160 5f a9 17 bf dc d7 15 3d c6 75 87 bd 86 4d 55 c0
       -0.59242815 0.036582813 -0.066142604 -3.3328567
000170 f3 b5 0d 3f 37 8f a5 3c 1b d3 9d bf e8 3f a8 bf
       0.5535576 0.020209892 -1.2330049 -1.3144503
000180 26 ef 31 40 39 67 3f 3f 96 7f 1b 40 28 2a 26 40
       2.7802215 0.7476688 2.4296622 2.596323
000190 29 88 c4 3f 5e 42 1b 3f 9c 51 c8 3e 9c 76 a6 3f
       1.5354053 0.60648143 0.39124763 1.3004947
0001a0 4f 2e 08 3f 38 c9 8a 3f 6c ea a0 3e 9d db 2a bf
       0.5319566 1.0842657 0.3142885 -0.66741353
0001b0 e1 6c 2e 3f f6 5e 87 be c4 d6 00 3e 34 79 19 bf
       0.68134886 -0.26439637 0.12581927 -0.59950566
0001c0 ef e3 04 bf 1a 1d 29 be e9 8a 8e 3e ba dc bf 3f
       -0.519103 -0.16515008 0.27840355 1.4989235
0001d0 6a 13 a6 3f e8 fd 1f 40 79 59 70 3f 6f 56 ed 3f
       1.2974675 2.4998722 0.93886524 1.8542002
0001e0 e2 fe 08 3f a5 e3 50 bd 99 20 be 3d dc d0 a4 bf
       0.5351392 -0.05099835 0.09283561 -1.2876239
0001f0 29 2d 80 bf bb 93 b9 3e a3 1e 88 3f fe 77 97 3f
       -1.0013782 0.36245522 1.063435 1.1833494
000200 bd ad 28 bf ce df cf be 4a 64 c7 3e a7 5c 31 bf
       -0.65890104 -0.40600437 0.38943702 -0.69282
000210 ab d7 da bf f2 89 0a bf 7d ce 97 3f 05 76 6f 3f
       -1.7097067 -0.5411674 1.185989 0.9353946
000220 9c 82 16 3e e9 98 64 bf 3e c8 39 40 d4 ec 69 3f
       0.14698261 -0.8929582 2.9028468 0.91376996
000230 3a 60 da 3f 64 b1 a7 bf 13 e0 f5 bd e0 3c 3f bf
       1.7060616 -1.310101 -0.120056294 -0.7470226

hid_bias f4 [24]
000000 44 03 8f 3f 76 26 da 3f f1 2c ac 3f 5d 1a 49 3f
       1.1172872 1.7042987 1.3451215 0.7855585
000010 d4 a3 57 3f 9e 98 ff 3f bd 74 8c 3f b7 cd 79 3e
       0.84234357 1.996845 1.0973126 0.2439488
000020 f0 ed 35 3e 20 0a 09 3e d8 d9 00 3f db 1d 13 bf
       0.17766547 0.13382769 0.50332403 -0.5746743
000030 76 8c be be 28 1b 2d be 59 ea 86 3e c7 30 80 be
       -0.37216538 -0.1690489 0.26350668 -0.25037214
000040 f0 36 72 3f 7e 73 b6 be 67 b0 98 3f 66 01 8b 3f
       0.9461508 -0.3563499 1.1928834 1.0859802
000050 90 e0 46 3f 7a a1 69 3f 8d 9b a5 3f ff 86 3a 40
       0.77686405 0.9126202 1.2938095 2.9144895

V f4 [6, 7]
000000 cf a5 15 c1 09 f7 97 bf d5 af fc 3f 80 65 e8 3f
       -9.352981 -1.1872264 1.974116 1.8155975
000010 01 04 03 bf 5c 15 31 c0 3f fa 3c bf 0b ef e6 be
       -0.51177984 -2.7669287 -0.73819345 -0.4510425
000020 d3 eb ea 3f b7 d7 b4 3f 99 70 a3 3f f7 62 11 c0
       1.8353218 1.4128331 1.2768737 -2.2716653
000030 ff 48 8b 3f 63 8c da c0 f7 40 df 40 c7 66 2e bf
       1.0881652 -6.829637 6.9766803 -0.68125576
000040 17 d2 90 3f 75 fe cb 3f 36 0d 75 3f 4e 5c dc bf
       1.1314114 1.5937029 0.95723283 -1.7215669
000050 d7 15 02 c0 b0 19 3e 3e 27 f2 19 bd c6 e6 31 40
       -2.032583 0.18564487 -0.03758445 2.7797103
000060 04 71 31 40 1a 56 08 c0 05 53 04 c0 bb d2 89 40
       2.772523 -2.1302552 -2.067567 4.306974
000070 9c a9 1b c0 b9 26 ff 3f c7 12 8a bf 67 96 65 bf
       -2.4322271 1.9933692 -1.078698 -0.8968262
000080 7d 7c bb be a7 85 a8 bf ca a9 7d 40 0c d0 c1 c0
       -0.36618415 -1.3165787 3.963488 -6.0566463
000090 19 ee 1a 40 6e d4 0a c0 8e 12 09 c0 5c 5a 28 40
       2.4207823 -2.1692157 -2.1417575 2.630515
0000a0 c1 c6 ce bf 8a 6b ee c0
       -1.6154405 -7.4506273

out_bias f4 [7]
000000 07 de 67 c0 4e 29 ac 3e 2e db 43 be 49 77 ac be
       -3.6229265 0.33625263 -0.19126579 -0.33684757
000010 74 c4 dd 3e 25 4e db be 2a 4f 99 c0
       0.43313944 -0.42833057 -4.7909136
